checkpoint_actor_1_best.pth (torch_old, 163742 bytes, 10 tensors)

fc1.weight f4 [256, 24]
00000000: 467a 8ebc 9dec 393d 0cb2 47bd 6bc4 b83b
00000010: 2395 4c3d fa9e d53d f531 003d f89b 68bc
00000020: eb11 c23c c373 bb3d dd95 463b a285 503c
00000030: 27a5 df3a e4bf fd3d 699f 72bc 4c32 9e3c
00000040: 7dc0 193d d4b9 033e c207 6e3c effa b1bd
00000050: 05f6 653d 9c0d a43d 2a4b e8bc 8028 9ebd
00000060: cc6b e23c 7586 80bd 3328 16bd da40 02bd
00000070: 6d75 a23d 4cd0 b23d 9176 483d 4001 87bd
00000080: 3fa5 323d 3c43 86bd 83bc 993b 0802 513c
00000090: 16bb 2f3d 3df0 3f3c 6e86 b9bc 7799 443d
000000a0: 8220 5e3d d1f4 19bc d1c3 ab3d 4a1d 1e3d
000000b0: e79d 42bd 3fde 6abb aa4c 513d ac0c 09bd
000000c0: 4140 cfbd 32ee 20bc 27ea fb3c a8ed 50bc
000000d0: f0a9 aa3b 60c8 c7bb 65ea 87bd 0bc2 e23a
000000e0: 7cba 713c 44e1 8e3c 301f cabc df26 383d
000000f0: 9806 b23c 2127 313c fb26 18bc eb4c 4ebd
00000100: 14b3 6a3d 4553 123d 000c 513d e902 1fbd
00000110: 1d25 d43d fa0f 443d d0c0 9e3c 282f 05be
00000120: 848a bbbd b9a8 c23d 2a43 03bb a1d2 9b3d
00000130: 1e9d fd3b 2252 043c c3c8 a93c 7d1e 70bc
00000140: 1083 44bd 34aa 043e 5b4e 1e3c e414 e7bc
00000150: b089 0b3d a9e9 25bd 0672 0dbc 0061 88bd
00000160: 7e23 c83c 8025 d93d 4341 dd3a 3390 3e3d
00000170: a78c a53d 0d8e 6e3d 3ba7 dcb9 5ed3 003d
00000180: 080f fbbd e736 abbc 070c 0f3c 4422 0c3c
00000190: 7553 60bd e566 25bb e943 933c 0f54 713d
000001a0: 4a00 a5bc ca1c 883d 414c 05bd a124 67bd
000001b0: 5b90 9ebb 2d84 ffbb f715 2a3d f0fc 073d
000001c0: 4992 b8bb c0f7 1b3d fb21 ffbb 7b09 7dbd
000001d0: 79fc 68bd f274 cb3d dba1 2c3d d5f2 e7bd
000001e0: e9f8 02be a0d9 1f3d 1007 b33c 4d3d 453d
000001f0: 23f5 b33c ec0e 94bc 9f9e 4dbc 1fa8 0c3d
00000200: 1ee9 d3bd 6905 cf3d 466b 3abd 20e8 e0bc
00000210: 3508 d7ba f324 f73b 90f5 433b 3ad7 65ba
00000220: 00ef 92bd 0a97 beba 3e41 e23b e234 6d3d
00000230: bed8 f7bc 60c6 dc3d 6e13 bfbc 2689 073d
00000240: 2d0b 04bd ee64 2bba fb2f 68bd 35ab a03d
00000250: 990f 34bd 16a5 37bd 1125 2b3d 0bb8 843d
00000260: 826d 0c3d d12f ccbb a777 c3bc b51f d13c
00000270: 373d 8a3c 9931 b9bd 219d d93c bbfd 06bd
00000280: a8b1 bebd ccfd 15be 9f24 ecbc 3b74 b0bc
00000290: 5014 0dbd bef5 c13d 4b91 2e3d e9b3 e6bc
000002a0: f400 b8bc 5677 1bbc e5b4 5dbd d66a b9bd
000002b0: 44a9 32bc 79fb 38bd e52c 483d 7e9f adbd
000002c0: b45c 87bd 9670 a33d c034 9abc 7df2 00bd
000002d0: 3407 343b c249 2fbd 91f3 ab3c 401f 33bd
000002e0: e057 7a3c 21d1 3ebd 5367 d6bc 4f85 a2bc
000002f0: 0e28 a4bd 14c2 02be 1498 b83c a9ef 43bd
00000300: 2759 e03c 26b4 f23c fa31 653d cbe7 72bd
00000310: 67d9 bebc 36ea 683d b869 7b3c bb75 80bc
00000320: 6ae4 f0bb 47e4 343d 14c4 d4bc 5cc3 ffbc
00000330: 671c 8a3b 086c 7a3d 82a2 3e3d 6c07 173d
00000340: 7acc 0b3d 9ccd 3abd 3dc9 89bd a6d9 2cbc
00000350: fd8d 5cbd 3ff7 ba3d 3293 973c c9dc 583d
00000360: 474a c53c d247 e43c 8269 a0bc b12d 863b
00000370: 2cbe 1cbd 236a ee3d 2fdd cb3c df44 ae3c
00000380: 7e5e a43d 1e26 993c fa86 0ebd 5da5 d93c
00000390: a918 0b3d f99c 043e dcbd f43c c1e3 8fbd
000003a0: 6c9b 813d e22b 383d b6aa 02bd 5f98 e4bc
000003b0: 05ac 75bd 1f71 6b3d 9804 c93b afda 743d
000003c0: 0cbe 11bd bff4 d0bb cbc3 213c e86f 893d
000003d0: 4c00 57bc bfde 2e3e 42d2 07bc a0d1 5c3d
000003e0: eb00 603c cfb6 00bd 813d e2bc 3003 e5bc
000003f0: fcc3 f93c 4e07 ec3d e04a 5c3c 90af afbc
-0.017392289 0.045391668 -0.048753783 0.005638649 0.049946915 0.10430713 0.031297643 -0.014197342
0.023690185 0.09152939 0.0030301728 0.012727173 0.0017062769 0.12390116 -0.014808514 0.019311093
0.037537087 0.12863857 0.014528217 -0.0869044 0.056142826 0.08010408 -0.028356154 -0.077225685
0.027639292 -0.06275646 -0.03665943 -0.03180013 0.079325534 0.08731136 0.0489412 -0.06592035
0.043614622 -0.06555793 0.004691662 0.012756832 0.04290303 0.011714992 -0.022647109 0.047997918
0.05423022 -0.009396748 0.083869584 0.03860215 -0.04751387 -0.0035838035 0.051098503 -0.03345935
-0.10119677 -0.009822415 0.030751301 -0.012751974 0.0052082464 -0.0060968846 -0.06636504 0.0017300261
0.014753934 0.0174414 -0.024673074 0.044958945 0.02173166 0.010812552 -0.009286637 -0.050366323
0.05729969 0.035723943 0.051036835 -0.038821135 0.10358641 0.0478668 0.01937905 -0.1300627
-0.09157279 0.095048375 -0.0020029047 0.07608534 0.007739677 0.008076223 0.020725613 -0.0146557065
-0.047976553 0.12955552 0.009662236 -0.028208204 0.034066856 -0.04050604 -0.008633142 -0.06659126
0.024430986 0.10602856 0.0016880411 0.046524238 0.08083468 0.05824094 -0.00042086266 0.031451575
-0.12258726 -0.020900203 0.008730895 0.008553091 -0.05476709 -0.0025238332 0.017976718 0.058918055
-0.02014174 0.06646116 -0.032543425 -0.056431416 -0.004838986 -0.007797739 0.041524854 0.033200204
-0.005632673 0.03807807 -0.007786033 -0.06177662 -0.0568814 0.09934415 0.042146545 -0.113256134
-0.12790264 0.039025903 0.021853954 0.048154164 0.021967476 -0.018073522 -0.012550025 0.03434002
-0.10347198 0.10108454 -0.04551246 -0.027454436 -0.0016405644 0.0075422465 0.0029901005 -0.0008767728
-0.07174492 -0.0014540863 0.00690475 0.05791176 -0.030254718 0.107800245 -0.023324694 0.03308978
-0.03223722 -0.0006538172 -0.056686383 0.07845155 -0.043960188 -0.044835173 0.041783396 0.06480416
0.034284122 -0.006231286 -0.023860766 0.025527814 0.016874893 -0.09042663 0.026564183 -0.03295682
-0.09311229 -0.14647597 -0.028826056 -0.021539798 -0.0344432 0.094707 0.04261903 -0.02816196
-0.022461392 -0.009488901 -0.054127593 -0.090535805 -0.010904614 -0.045161698 0.04887094 -0.08477686
-0.066094786 0.079804584 -0.018823981 -0.031481255 0.0027470114 -0.04279495 0.020990165 -0.043730974
0.01527974 -0.04658616 -0.026172316 -0.019838957 -0.08015452 -0.12769347 0.022533454 -0.04783598
0.027386261 0.029626917 0.055955864 -0.059303086 -0.023297025 0.056863986 0.0153450295 -0.015681138
-0.007351448 0.044163015 -0.025972404 -0.031221084 0.0042148116 0.061138183 0.0465417 0.036872312
0.03413055 -0.04560624 -0.06727836 -0.010549938 -0.053846348 0.0912919 0.018502805 0.052944932
0.02408327 0.027866278 -0.01958156 0.0040948023 -0.0382673 0.11641338 0.024885742 0.021273075
0.080258355 0.018694934 -0.034796692 0.02656811 0.033959065 0.12950505 0.029875688 -0.070258625
0.063284725 0.044963725 -0.031901084 -0.027904687 -0.059978504 0.057480928 0.006134581 0.059778865
-0.035581633 -0.0063768323 0.009873341 0.067107975 -0.013122629 0.17077158 -0.008289875 0.05391085
0.013672094 -0.03142434 -0.027617218 -0.027955621 0.03048896 0.11524831 0.013445586 -0.02144602

fc1.bias f4 [256]
00000000: 3e6f 25be 7282 1c3d f023 26bd d11e 1e3e
00000010: 16bc 4fbe cfe9 df3b ed55 b83d a114 d93c
00000020: cfb0 63bd 9a05 443e 0a38 22be 40af 423e
00000030: d699 633d d013 c73d d759 133e 184c a63c
00000040: 6b50 b13c aa88 29bd 129e 3dbe 3419 b03d
00000050: 5652 1c3e 6dc7 ae3d 0d71 02bd af1b 3bbe
00000060: 7b6b 5dbb f56d 593d ff9a 23be bfbd 313e
00000070: 6b2f b0bb 595a 643d a765 383e 8242 b53d
00000080: f68a e2bd da24 9a3d fcd1 f53d 2c92 d03d
00000090: af69 c4bd 96c6 a93c 2e39 16be 0be1 bbbc
000000a0: 6b0a 11be 87fb ee3d b783 4c3e 7870 4abe
000000b0: 7c4f c3bd f0d3 b0bd 6563 12be fa32 3e3e
000000c0: d673 21be 788c dabd 01a2 2dbe 4e3b 32ba
000000d0: 8fb9 1abe cecf 0cbe bddd 4f3e 1ffd ba3d
000000e0: 0e56 b13d dc3c 143e c776 103d d0d2 073d
000000f0: 05f8 1cbe 71e0 6a3d e64b 23be 622c 65ba
00000100: 417d e1bd f0ee ecbd d6e2 f4bd ed5e cabd
00000110: 699a f8bd 179e e4bd 3268 98bd 88fe 3ebe
00000120: 694f 273e e17c 8c3d fae6 4fbe 7ef9 50be
00000130: 7b81 d2bd 7556 a13d 8c55 3f3e c338 02bd
00000140: b4be f83d 097c e1bd 0c99 2dbd fe91 01bd
00000150: 9d81 4bbe b95d 8d3a e34a 5d3d 9ccb fe3d
00000160: 63bd 21be 6738 7cbd 1844 fe3b cd5d b13c
00000170: e902 0d3d 1045 1bbe 0750 223e 50db 3cbe
00000180: dd28 91bd 7d52 d03d 459c 50bd 045e c9bd
00000190: f730 4ebe 01f3 0f3e a0c7 95bb 9fef c93d
000001a0: 5863 053d e26f 1bbe 91c0 93bd 3912 153e
000001b0: 92ba ccbd 249f c0bd 0a31 e53d c739 b5bd
000001c0: c187 083d d439 cbbd 6b8d 803d 721f aa3c
000001d0: fee8 25be 2571 1ebe 95b7 993d 0eeb 88bd
000001e0: 9802 e53d 511a 2e3c 50ec 8ebd 676e 11bd
000001f0: 9c74 bebd 6749 ce3d 68cc 253e 4503 d0bb
00000200: 3cc9 06be 0a40 163e 3c15 2a3e 1c7f 0e3e
00000210: d865 72bb 9389 4d3d abfc 293c 6ac8 9ebd
00000220: 7cf5 4ebe 167c ccbc dccf b43d 4ad3 f33d
00000230: 6447 463d d9a2 be3d 71cc 023e 4698 21bd
00000240: 2f7d 083e 4b2d 8cbb fb0e 94bd 0441 a2bd
00000250: 78a3 f3bd 66fd 20be 2d88 3f3d b225 413e
00000260: f500 ed3c 14f2 e13c 92d2 9cbd 4dc9 a4bd
00000270: 0708 83bd 34ad 903d f01c 103d 0b9c 99bd
00000280: 27d5 233d bb13 12bd c5a8 63bc 8936 143e
00000290: 8630 aebd 7109 433e 16ab e4bd 35a9 413e
000002a0: 0611 9d3d cfdb a73d 933c 3fbd 94d9 63bd
000002b0: e9e2 18be 0377 48be 115b 123e 4ec3 4a3e
000002c0: ebd6 6f3d 434d a3bd c19c 373d 7815 f9bb
000002d0: 66b1 34be 2a70 27be e629 913d 2839 74bd
000002e0: 9cf5 46bd 4707 fcbd d65c b83d 2bf3 d2bd
000002f0: c570 85bd deba df3d 11f2 483e 6e69 3a3e
00000300: e790 a43d 88cf ed3b 8519 1d3e 92cf 383e
00000310: 8bbc bb3d c3d6 753d 4c75 493d 7845 aa3c
00000320: d7fe 093e 2989 6c3d 193d 30be 03ed f6bd
00000330: c5d1 3dbe 9a78 7bbd fdec 2a3c 763b b1bd
00000340: d53b 40be 8dee 07be 0ceb b13d fc20 6cbc
00000350: 252b 0cbd 827b 073d d29b 30bd c5d1 e3bd
00000360: d6e9 bfbd 9d61 aabd 9ca6 43be a6c5 40be
00000370: f46f 9ebd b7e9 9c3d 766a 4c3e f15a b5bb
00000380: 12be 0e3e 4134 8a3d 396f 26be 4b24 d1bd
00000390: 6d7b 65bd 4448 2cbe 4b2b ea3c 439c 463d
000003a0: a5ef 22be 88eb 2fbd aa5e 38be 0b25 503e
000003b0: 7944 f73d 4caf 9dbd 86b0 333e ebd2 02be
000003c0: 3cda 2f3e 7bdf a0bd 004a 743d 463b 113e
000003d0: 8fa1 c23d 272d 4a3d b2d7 c0bc 0f13 c33a
000003e0: 9875 323e 3d95 88bd 4b9a 87bd 9ab5 d53c
000003f0: 8bc9 cabd 6a0c 9ebd 02a3 823c 0b32 1d3e
-0.16155717 0.03821034 -0.040561616 0.15441443 -0.20286593 0.006833292 0.09000764 0.026499094
-0.05558854 0.19142762 -0.1584169 0.19012165 0.05556663 0.09720576 0.1438974 0.020299956
0.021644792 -0.0413901 -0.1851733 0.08598557 0.15265784 0.08534131 -0.031846095 -0.18272279
-0.0033785987 0.05308338 -0.15977095 0.17357539 -0.0053767464 0.055750225 0.18007527 0.08850576
-0.11061661 0.0752656 0.12002942 0.1018413 -0.0959047 0.020724576 -0.1467025 -0.022934457
-0.1416413 0.11669069 0.1997212 -0.19769466 -0.09536645 -0.08634174 -0.14295729 0.18574134
-0.15766844 -0.106713235 -0.16956331 -0.0006798998 -0.15109847 -0.13751146 0.2029943 0.0913031
0.08658992 0.14476341 0.035269525 0.03316003 -0.15328987 0.05734295 -0.15946922 -0.00087422703
-0.110102184 -0.11569011 -0.11957328 -0.09881387 -0.121388264 -0.11162966 -0.07441749 -0.18651783
0.16338886 0.06859756 -0.20302954 -0.20407674 -0.10278603 0.078778185 0.18684977 -0.031792413
0.12145749 -0.11009986 -0.042382285 -0.03163337 -0.19873662 0.0010785378 0.054026496 0.12441179
-0.15794902 -0.061577227 0.0077595823 0.021651173 0.034426603 -0.15163064 0.1585084 -0.18443036
-0.07087872 0.101719834 -0.05093028 -0.09832385 -0.20135866 0.14057542 -0.0045709163 0.09860157
0.032565445 -0.15179399 -0.072144635 0.14557733 -0.09996523 -0.09405354 0.11190994 -0.08848911
0.03333259 -0.09923139 0.06276973 0.020766947 -0.1620216 -0.15472849 0.075057186 -0.06685458
0.11182135 0.0106263915 -0.06978667 -0.03550568 -0.09299585 0.10072594 0.16191256 -0.006348046
-0.13162702 0.14672866 0.16609663 0.13915676 -0.0036986973 0.05018003 0.010375182 -0.0775307
-0.20210832 -0.024961513 0.088287085 0.119055346 0.048407927 0.093084045 0.127733 -0.03945186
0.13329004 -0.0042778603 -0.0722942 -0.07922557 -0.118964136 -0.15721664 0.046760727 0.18862036
0.02893112 0.027581252 -0.076573506 -0.080462076 -0.063980155 0.07064286 0.035183847 -0.07500466
0.0399982 -0.035663348 -0.013895218 0.14473929 -0.08505349 0.1904657 -0.111654446 0.18912204
0.076692626 0.08196222 -0.046688627 -0.05562742 -0.1493031 -0.1957665 0.14292552 0.19801065
0.05855457 -0.07973721 0.044827227 -0.007601436 -0.17645797 -0.16351381 0.070880696 -0.05962482
-0.048574075 -0.123060755 0.09002082 -0.10300287 -0.0651565 0.10924314 0.19623591 0.1820428
0.080354504 0.0072574057 0.15341766 0.18047932 0.09166821 0.060019266 0.04918413 0.020785078
0.1347612 0.057747994 -0.17210807 -0.12056925 -0.18537052 -0.06139431 0.010432479 -0.086539194
-0.18772824 -0.13274594 0.0868741 -0.014412161 -0.034220833 0.03307677 -0.04311735 -0.11123995
-0.093707725 -0.083193995 -0.19106525 -0.18825397 -0.07736197 0.07661765 0.19962487 -0.0055345227
0.13939694 0.06748248 -0.16253366 -0.102120005 -0.05602591 -0.16824442 0.028585097 0.048488867
-0.1591173 -0.04294923 -0.18004861 0.20326631 0.12073607 -0.07699451 0.17547807 -0.12775771
0.17173094 -0.078551255 0.059640884 0.14182767 0.09503471 0.049359467 -0.023540352 0.0014882999
0.17427671 -0.0666909 -0.06621226 0.026087571 -0.099017225 -0.077172115 0.015946869 0.15351121

n1.weight f4 [256]
00000000: 145b 5a3f 16d1 983e 3a45 7e3f c2b2 003f
00000010: 851a 353f e6d0 293f f3fc 833f c21b 193f
00000020: e9e7 e83e 0892 1c3f 134a 333f a9e2 e53e
00000030: 4fec 843f 7ef7 c43e a2cc 3a3f 5c63 a23e
00000040: 4d40 293f c1c0 193f 69be d93e e0e5 773f
00000050: ddc2 853e 5ea5 3c3f 464a 183f 884b 0b3f
00000060: eef0 883f c5e8 793f edd2 493f 5ace 1b3f
00000070: efcf 683f 3085 e03e 92c8 843e a712 983f
00000080: e251 f33e a9e0 3a3f 3078 173f 6ef4 833f
00000090: 9200 8c3f f743 a33e 046c 283f 5aa8 7c3e
000000a0: 3656 783f 9b56 8e3f e7e9 f53e 8638 2c3f
000000b0: 482d 133f a964 df3e 434d 8b3f 3590 fa3d
000000c0: d2b6 1c3f 2e8e 1a3f d06b 9b3e e2f4 533f
000000d0: bd55 803f 9d2a 8a3e 5460 593f 67d4 243f
000000e0: 7e8c 853f d7d4 373e ddaf 833f 1880 023f
000000f0: fbe4 873f a458 bb3e 79ea 203f e10e 353f
00000100: 0241 733f 5f98 553f c834 713f 1a77 033f
00000110: f9bc cb3e 8c03 1e3f 5cd3 913f 65ed 8a3f
00000120: 48a7 ae3e 46fd 793f d46c 423f 415b 1b3f
00000130: 9974 733f 7c4f 183f 8fa4 313f 445a b33e
00000140: 16f1 ec3e 9b18 8d3f 5343 6c3f 2396 a63e
00000150: d739 173f 7dee 693f 78bc c83e 6314 0c3f
00000160: b4e2 713f 53df 913f 5c89 8a3f d723 c63e
00000170: de6e 743e f08e 6a3f 6dd9 243f e9f6 983f
00000180: 7ff2 823f 020a ed3e a525 5f3f 1f82 563f
00000190: 9ff9 e63e 9387 853f d62c 1b3f d5dc d83e
000001a0: e5d3 903e 8f5a 853f 8915 713e 319b 813f
000001b0: 55d7 fb3e ff56 203f cd55 363f b2b9 8e3f
000001c0: e720 a83e f07a aa3e e898 613f aa75 c83e
000001d0: e964 fc3e b9d7 813f 6906 f33e 4786 6f3f
000001e0: e774 d63e 01de 7b3f edc0 963f 9b38 353f
000001f0: 0210 093f fd82 5c3f c13a 3c3f d313 173f
00000200: 807c 923f 3dfa 283f 197d 453f cfe0 153f
00000210: 2c19 053f 9a33 163f 233b 2a3f 653e 6b3f
00000220: 6a60 8a3f 6071 7c3f 4c7a d33e a7b9 833f
00000230: 82aa 813f 2f07 433f ddf0 2d3f 135f d93e
00000240: c8d6 b83e 9d3a 4a3f d79b 683e a01b 4f3f
00000250: a785 1a3e 2410 503e 2643 d63e 4a79 813f
00000260: f76d 823f 1e2b 683e 12b1 993e 634d 313f
00000270: 927d 013f 7c65 753e 6400 413f eac0 7e3e
00000280: adb7 213f 929e 483f 4d65 883f 9652 393e
00000290: abde 783f 9c24 4a3f b66b 913f 176f 943f
000002a0: 1548 1e3f 5b35 0d3f b135 1f3f 7824 843f
000002b0: 7428 e43e 0e54 7b3f 57ec 4b3f 5529 913f
000002c0: 726f 863f 046f 893f 79ec 813e 35d5 f63e
000002d0: 9059 a03e f8b8 583f 05d6 403f 503f 823f
000002e0: 8683 4a3f ac9d 293f fc81 4c3f e1c3 c03e
000002f0: 1dd7 743f 4bc6 cc3e b40c b83e 6988 4d3f
00000300: a44a 853f 3da0 0a3f bd21 903f c3ab 2c3f
00000310: 56ac a83e a168 0e3f 3e60 7f3f 8f5d c93e
00000320: f2cc 8c3f 3ac2 043f a47b e23e 10ac e23e
00000330: bb6f 2f3e 3c1f 8a3f ef9c a33e c9e6 c73e
00000340: 7891 d83e 2718 833f 5829 613f f695 473f
00000350: fa5b 073f da56 653f 42d5 363f 7b1c 813f
00000360: b7dd 493f b790 803f 0c69 653f edc9 393f
00000370: 2a17 9d3e 51ad 3b3f d443 613e d2c0 2f3f
00000380: eb54 203f c45b 883f 16b1 c23e 2cd7 933e
00000390: bb9b 613f 851f 723f c613 fc3e 06a3 4b3f
000003a0: 539b 833f 8a0f 333f d81e e83e 242c 713f
000003b0: 387e 8c3f 6224 173f fae0 783f 8a24 2b3f
000003c0: 0706 f93e 9438 1c3f a068 103b 8885 603f
000003d0: 608f a73e 6f58 b73e 64b5 153f ce8d 113f
000003e0: 4aa5 e43e 9763 f93e 2be5 183f df55 413f
000003f0: edd7 4d3f 1326 093f 9681 3d3f 8c60 8f3e
0.85295224 0.2984702 0.9932438 0.5027276 0.7074359 0.6633438 1.0311569 0.5980798
0.45489433 0.61160326 0.70034903 0.4489949 1.0384616 0.38470072 0.72968495 0.3171643
0.6611374 0.60059744 0.42528084 0.96835136 0.2612523 0.7368983 0.5948833 0.54412127
1.0698526 0.97620803 0.7883747 0.6086174 0.9094228 0.43851614 0.25934273 1.1880692
0.4752341 0.72999054 0.59167767 1.0308969 1.0937674 0.3188779 0.6578982 0.24673596
0.9700655 1.112018 0.48030016 0.6727375 0.5749097 0.43631485 1.0882953 0.122345366
0.6121646 0.603732 0.30355692 0.82795537 1.0026165 0.26985636 0.8491261 0.643866
1.04335 0.17952286 1.0288044 0.50976706 1.0616754 0.36591065 0.62857777 0.7072583
0.9502107 0.83435625 0.9422116 0.5135361 0.39792612 0.6172416 1.1392627 1.0853697
0.34112 0.9765209 0.7594731 0.6068612 0.9509979 0.59496284 0.6939172 0.35029805
0.46277684 1.1023134 0.9229023 0.3253642 0.5907263 0.9137953 0.3920629 0.5471861
0.94486547 1.1396278 1.0823169 0.3869922 0.23870417 0.91624355 0.64394265 1.1950351
1.0230254 0.46296698 0.87166816 0.837923 0.4511232 1.0431999 0.6061529 0.4235598
0.28286663 1.0418261 0.23543371 1.0125486 0.49187723 0.62632746 0.7122467 1.115042
0.32837602 0.3329692 0.8812394 0.3915227 0.49295738 1.0143958 0.47465828 0.93564266
0.41886064 0.98385626 1.1777626 0.707895 0.5354005 0.8613737 0.7352715 0.59014624
1.1444244 0.66006833 0.7714401 0.58546156 0.51991534 0.5867249 0.66496485 0.9189208
1.0810673 0.98610497 0.41304243 1.0291032 1.013016 0.76182836 0.67945653 0.42455348
0.36101365 0.78995687 0.22715698 0.8090153 0.15090047 0.20318657 0.41848105 1.011514
1.0189809 0.22672698 0.30017906 0.6925871 0.5058223 0.23964494 0.7539122 0.24878278
0.6317089 0.7836696 1.0655915 0.1809791 0.97214764 0.7896211 1.1360996 1.1596402
0.6182874 0.5515954 0.621913 1.0323629 0.44562113 0.9817513 0.796575 1.1340739
1.050276 1.0737004 0.25375727 0.4820954 0.3131833 0.8465724 0.7532657 1.0175571
0.7910694 0.66256213 0.7988584 0.37649444 0.95640737 0.39995036 0.35947192 0.8028627
1.0413404 0.54150754 1.1260296 0.6744959 0.32943982 0.556284 0.9975623 0.39329192
1.1000044 0.51858866 0.44234955 0.44271898 0.17132466 1.0790782 0.31955668 0.39043263
0.42298484 1.0241746 0.8795371 0.779632 0.5287472 0.8958565 0.71419156 1.0086817
0.78853935 1.0044163 0.89613414 0.7257374 0.30681735 0.73311335 0.2199853 0.68653595
0.62629575 1.0653005 0.3802573 0.288751 0.8812825 0.94579345 0.49233836 0.7954563
1.0281776 0.69945586 0.45336032 0.9420798 1.0976019 0.5903989 0.97218287 0.6685263
0.4863741 0.6102383 0.0022035018 0.8770375 0.32726574 0.35809657 0.58479905 0.56857
0.44657356 0.48708794 0.5972468 0.75521654 0.804076 0.5357372 0.7402586 0.28003347

n1.bias f4 [256]
00000000: 0347 c63d e768 113d 3b85 8e3d 5620 d53d
00000010: d8ba 9d3d 5b87 ae3b 61cf f8bc b458 093e
00000020: a7f2 963d e2c7 623a 90c1 cc3c ce92 c33d
00000030: 094e a1bc 4900 57bd 54c8 89bc a3ac 52ba
00000040: 6d33 203d c04b 23bb 75e9 653d 449f 003d
00000050: 97e5 b03d ccd8 1a3c 9fb3 893d 0d23 223c
00000060: 23be 56bd ae19 56bd 3bf3 783d de76 273c
00000070: 5ad0 ebbc 9d64 8c3b f121 2f3c eba1 63bd
00000080: 44df 0d3d 8543 183d 6f76 a7bd 10c0 8d3d
00000090: 946a bd3b 5669 0c3e a26f 91bc 01fd 2cbd
000000a0: e356 303d f507 8f3d ee0e a63d d2a2 123d
000000b0: 6de6 03be 38e2 143d b5d5 64bd 265d 6e3d
000000c0: 8429 3b3d 7524 1d3d d3a0 dbbd 298c bd3d
000000d0: a2ff 49bc 437b 3a3d 16a2 123d a0ef b33c
000000e0: d35b f03d 07e3 ab3d b2e4 133c a0ba 89bc
000000f0: 44ef 093d d561 483c 14fe 09bd 3e86 283e
00000100: 8314 c43a d4df 883c 9e0a 8e3d 83f5 183d
00000110: f972 c53d 9dd4 5d3d 1869 1a3d 11f6 8a3d
00000120: aeba 393d 1d67 3c3d 386f fbbd 1c29 303c
00000130: 6fc5 d03c 0800 d33c 89d3 a83c 552f 23bd
00000140: 7f57 1ebe 8ab2 263b 4c83 d73c e443 273e
00000150: f17c 21bd 091f 81bd 6d91 a53d 9d30 8d3d
00000160: 5359 c6bc 7759 b13c ee02 d0bb 6fc9 10bc
00000170: c488 b1bc 0c5e 6abc cc09 a73c 7167 8f3d
00000180: 21aa 8e3d 4bae 8d3c 7f4f 6cbb d630 743d
00000190: a8fb 0a3d f9e8 03bc 45b6 e13d 6bdb 97bc
000001a0: 233b 81bd e08d 193d 1d03 8e3d 4f14 cfbd
000001b0: 09a1 753d 4d29 ca3c 4c20 173d 4ede 2c3d
000001c0: d5e5 c9bd f02f f03c 9afe ae3c 114e 94bd
000001d0: 6b1e 503c 8628 3c3d ee1e cd3d d582 ac3b
000001e0: c7e5 bb3d c22d 863d fca8 1ebc a9e7 103d
000001f0: 659d 653d a973 8aba 490f b8bd 1f7c d43c
00000200: 59be 7dbc d3c7 4f3d 6933 f73d ecf3 5b3c
00000210: 233c 8a3c 96dc 70bc 7214 a43c c258 be3c
00000220: ff68 b139 c846 b33d 66ff 52bd 9715 793d
00000230: b425 5dbd f441 113c 0800 8a3d 3a2b 95bc
00000240: d346 573d 0481 533c 57dc d03d 9347 0b3d
00000250: 42e6 d03c 7059 993d 0cf0 593b febf 183d
00000260: cd93 843d 2b3a 453c 1392 273c 88fe 103e
00000270: f5b8 a43d 0bf6 72bd 2563 e3bb 894b 903d
00000280: 6eb7 57bc b7d8 d93c 96c0 e5bc 9ef1 49bd
00000290: b93c d23d dccb 163e ecc7 8b3d c593 123d
000002a0: 19a9 8ab9 f722 8d3d 56d3 333d ec10 d73d
000002b0: d061 133d e2f7 f23c 8bc5 303d d0b4 963c
000002c0: 6f4e 203c 78d1 69bd 97f6 52bc 5e73 b0bc
000002d0: 2177 9b3d d07d e5bb e06f f93c e60e b13d
000002e0: 9611 e73d 6145 bebc 4abc 8c3c 4d69 e33c
000002f0: e9a6 b43c 1385 73bb b461 da3d a401 0f3d
00000300: 9d02 803d 1e6d a53d 8198 873c 5d91 093e
00000310: d3d2 9b3d 8a71 9bbd 049e 9fbd 637c e0bd
00000320: 7bfa af3d f411 a83d 3cd2 d3bc 603b 573d
00000330: 8c1a bd3b 8e76 3fbd 9e01 ca3c 213d 363d
00000340: b26b d03d 88e3 8ebd 7645 05be 1e40 a8bb
00000350: 1863 c03d f36c 863d ff08 013e 0459 413d
00000360: 8773 08bd 090f 1f3d 6904 4fbc 21b0 c5bd
00000370: 2cab 32bd 6ae0 d13d 754c 383c 2e70 613b
00000380: 29ed 15bc 59a7 84bc b073 103a 6fe3 ad3c
00000390: 73f4 ae3d cd13 82bd 2807 eebd 1eaf c43d
000003a0: ff86 2cbc efe5 163c 42da ecbd 5716 803d
000003b0: 03e4 7a3c 6a2a 543d a256 073c aa9b 8f3d
000003c0: 784d c43c 4cda 25bd 4008 3bbc 8be2 3e3d
000003d0: fa3d 9bbd 315c 793d dbf1 aebb 1b22 a5bc
000003e0: fb6b fdbc 53fc 25bd 42a2 9b3d dcef 03bd
000003f0: b58a e13d 06e0 10be fe0c 653c e075 b33d
0.09681513 0.035500433 0.069590054 0.10406558 0.07701653 0.005326194 -0.030372323 0.13412744
0.07370501 0.00086510007 0.024994642 0.09549485 -0.01969053 -0.052490506 -0.016819157 -0.0008036589
0.039111543 -0.0024916977 0.056130845 0.031401888 0.08637541 0.009451102 0.06723713 0.009896052
-0.052427422 -0.052270584 0.060778838 0.010221211 -0.028785873 0.004284455 0.010689245 -0.05557434
0.03463675 0.037173767 -0.08176886 0.06921399 0.0057805274 0.13712057 -0.017753426 -0.04223347
0.04305161 0.069839396 0.08108316 0.03579981 -0.12880869 0.03634855 -0.05586787 0.058194302
0.04569389 0.038364846 -0.10724034 0.09255249 -0.012329014 0.045527708 0.03579911 0.021964848
0.11736264 0.083929114 0.009026693 -0.016812623 0.033675447 0.012230356 -0.033689573 0.1645746
0.0014959726 0.016708292 0.06935619 0.037343513 0.0964107 0.054157842 0.03769788 0.06785215
0.045344047 0.045996774 -0.12277073 0.010751989 0.025484769 0.02575685 0.02060868 -0.03984006
-0.15463065 0.0025436007 0.026307724 0.16334492 -0.039425794 -0.063047476 0.080843784 0.06894038
-0.024212515 0.021649105 -0.0063480055 -0.008837088 -0.02167166 -0.014304649 0.020390414 0.07002152
0.06966043 0.017295023 -0.0036058126 0.059616886 0.033931404 -0.0080511505 0.11021093 -0.018537244
-0.063101076 0.03748882 0.069341876 -0.101112954 0.05996803 0.024677897 0.036896035 0.042204194
-0.0985829 0.029319733 0.021361638 -0.072414525 0.012702565 0.045937084 0.10015665 0.00526462
0.09174686 0.06551696 -0.009683844 0.03537718 0.056058306 -0.0010563034 -0.089872904 0.025938092
-0.015487277 0.050727677 0.120703526 0.013424855 0.016874379 -0.014701029 0.02002928 0.023235682
0.000338383 0.08753735 -0.0515131 0.060811605 -0.053991035 0.008865822 0.06738287 -0.018209089
0.052557778 0.012909178 0.101982765 0.034003805 0.02550042 0.07487762 0.0033254651 0.037292473
0.06473503 0.012037794 0.010227698 0.14159596 0.0804309 -0.059316676 -0.006939309 0.07045657
-0.013166292 0.026592596 -0.028045934 -0.04930269 0.10265488 0.14726204 0.068252414 0.035785455
-0.000264474 0.06891435 0.043902718 0.105012745 0.035981953 0.029659215 0.04315714 0.018396765
0.009784325 -0.05708453 -0.012876174 -0.021539386 0.075910814 -0.0070035234 0.030448854 0.0864542
0.11282651 -0.023226442 0.017179627 0.027760172 0.022052245 -0.0037158176 0.10663167 0.034913674
0.062504984 0.08077453 0.016552212 0.13434358 0.07608571 -0.07590015 -0.07793811 -0.10961225
0.08592697 0.08206549 -0.025857083 0.05254686 0.005770987 -0.046743922 0.024658974 0.04449189
0.10176791 -0.06976992 -0.13014778 -0.0051345965 0.09393901 0.06563749 0.12601088 0.047204033
-0.0333133 0.038832698 -0.012635329 -0.096527345 -0.043620273 0.10247882 0.0112486975 0.003439914
-0.009150782 -0.016193079 0.0005510403 0.021226613 0.08542719 -0.06351433 -0.11622459 0.096037135
-0.010530232 0.009210094 -0.11565067 0.06254261 0.015313151 0.05179826 0.008260401 0.070121124
0.023962721 -0.040491387 -0.011415541 0.046602767 -0.075801805 0.060878936 -0.00533889 -0.020157864
-0.030935278 -0.04052384 0.075993076 -0.03221117 0.110127844 -0.14147958 0.013980148 0.08762717

n1.running_mean f4 [256]
00000000: f6cb e43e 198e e1bd 83b3 a33e aeb8 913f
00000010: 1a9c b93f efd1 1e40 8f69 2d3f 87b9 9abe
00000020: b3cf e23e a755 fdbb ffb8 813f f73b ba3f
00000030: 2c2a c9be 41f2 3f3f d50c 643e e1b1 2cc0
00000040: 54b3 cb3e d929 1e3f 9d64 7cbf 805c 3a3f
00000050: da00 8bbf 9157 0b40 7278 a5bf 0d6c 4dbf
00000060: 05c9 51be 9eba 0a3f e74b 163f 0ce6 c7be
00000070: bcfc 633e 59e4 f53c 1235 753f e890 873f
00000080: 838c 443f 7e56 6e3f 6441 473f 0175 16bf
00000090: 7307 953f ab26 8b3f 5a40 573e 83ee 5a3f
000000a0: d834 7fbe 19b0 fdbe 007f 963f f37c 8d3e
000000b0: 7d5a ea3d cb5a 7a3e 20eb fb3d 22c0 5c3f
000000c0: 452b c03f 3963 02be 313a 89bf 44e1 75bf
000000d0: ce36 1cbf 24c6 323f 10eb a03f fb12 7a3f
000000e0: 665e f33e d972 01be eeb8 b5bd ddf5 ec3f
000000f0: 8185 b3be 8cc3 53bf 54f1 2940 8d14 a23e
00000100: 3750 373f 2af2 353f 9c63 143f 1187 44bf
00000110: c941 ae3f 174f 8e3f 1717 d53f ea5a 1940
00000120: cedf 223f bc8a bfbe fd23 99bf af3e 973f
00000130: 4167 3c3d 2c14 d53f 9536 923f 47dc e13e
00000140: f602 e83f cfbd c03e 42fb f53e 6953 02c0
00000150: a418 33bf ffab a03f 3a91 993b 9495 cabf
00000160: c925 4cbe dd91 2f3f 4011 e13f 9fb5 253e
00000170: ee17 4b3f e752 2c3f 41ff 0640 3ec4 5bbe
00000180: 7dc4 1ebd 36ee 613e e2b4 ed3c 708c 6b3f
00000190: 3d9c 653f f65b babf ca2b e63f c46e 873f
000001a0: 28a9 b3bd 4c45 9dbe a44c be3f cc1b 903f
000001b0: 6321 19be 9326 ea3d ae6f 833f c003 fe3f
000001c0: 45d8 8c3f 993e 133e bad8 d43f ad36 9dbf
000001d0: 3bba 50bd 741b 7d3f d4d6 63bf e914 943e
000001e0: 7efe 973e 5ce0 d3be 96e9 03bf 8361 713e
000001f0: bc9c cd3e 6742 3b3f 0785 2cbf e3df 693f
00000200: d254 45be 92e2 743f 83d1 7f3e 0e8e cbbf
00000210: 904c b8bf a5dc 253f a3b7 8d3e 1c41 51be
00000220: c364 063f c8ec 3b3f a0c9 db3f 5427 d93f
00000230: 49c9 7ebf 03df 9c3f ea01 ff3f 6150 cc3e
00000240: 58ee 693f 5058 163f 7a04 5ebf 1afe 3540
00000250: 2581 c03d 02b7 6fbf baad 50bf 3dc0 3c3f
00000260: da25 99bf 09e7 ea3f 77e2 89bf fb9c 843f
00000270: 4091 0d3e 0407 8a3f ff95 393f 246a 1e3f
00000280: 5dfd e53a d0b2 b4bf c13b 5d3f bb2a 0440
00000290: fdbd d03f 5a0d 01be 61b1 e4bf 5d3c 9c3e
000002a0: 821d 863f dd42 913f 23c7 ca3e 1ec9 52be
000002b0: 114f 0dbd 5610 a83f 1a1b c7be 5289 04bf
000002c0: 53d6 f3bb ee5c b5be ddaa 46bf feac 8dbf
000002d0: bb68 f03f 8711 a43f 4da3 0f3f e539 c83d
000002e0: f4af 98bf b689 97be bd74 fb3d 4a86 f93f
000002f0: 8378 323f 5fcf fabe f73e bf3f 3037 a03f
00000300: afd3 a83f 7147 25c0 2900 233f d1cc 4f3f
00000310: 9cd4 c93f c351 cd3e 47bd 73bf 1d2d 993f
00000320: 4ef2 623f 80d7 013f 24c6 743f 015a e03e
00000330: ed4b b33f ee92 0440 9a58 e03f 44a5 5cbf
00000340: 6f85 873f 7687 74bf e5f3 9f3e 892a ce3f
00000350: 6fe3 b03f 474d 873f 3f02 39bf 9557 4d3f
00000360: d518 a8bf 7ee3 0140 e396 853d 0525 233e
00000370: 72cb 463f e3e4 b63f c727 813f 7f08 303f
00000380: 5f34 1140 7c4c f73e 6878 0dc0 0e60 9b3e
00000390: 8e23 c33f ca0d f3bf 6259 56be 785c 13bf
000003a0: 012e 4d3f d260 9c3f 9db8 dabf 0e3d 19bf
000003b0: 4c8e ae3f cfb7 8b3f 6d3b d3ba 6f0e dcbf
000003c0: 684e a43f c2c0 023e a70e 3cbc db92 fb3f
000003d0: bfa3 943f 2e42 46bf 6706 4740 39af 5bbf
000003e0: b668 ec3e a3bf 943d 94c2 40bf 20d3 243f
000003f0: 0e77 673f 2d94 6cbf d0dd c33f e35e 463f
0.4468686 -0.11013431 0.31972894 1.1384485 1.4500763 2.4815633 0.67739195 -0.3021967
0.44299087 -0.007731158 1.0134581 1.454955 -0.39289987 0.74979025 0.2227052 -2.6983569
0.39785254 0.61782604 -0.98591024 0.72797394 -1.0859635 2.1772196 -1.2927382 -0.80243
-0.20486839 0.54191005 0.5870957 -0.390427 0.2226438 0.030016111 0.95784104 1.0591097
0.76776904 0.93100727 0.77834153 -0.58772284 1.1642898 1.0871176 0.21020642 0.8552019
-0.24922502 -0.49548414 1.1757507 0.2763439 0.114430405 0.24448697 0.12300706 0.8623067
1.5013205 -0.12733163 -1.0720884 -0.96046853 -0.61021125 0.6983359 1.2571735 0.9768521
0.47532958 -0.12641467 -0.08873163 1.8512532 -0.35062793 -0.82720256 2.6553545 0.31656304
0.71606773 0.7107264 0.5796449 -0.76768595 1.3613826 1.1117886 1.6647671 2.396174
0.6362275 -0.37410533 -1.1964108 1.1816005 0.045996908 1.6646781 1.1422907 0.4411337
1.8125904 0.37644812 0.48043257 -2.036341 -0.69959474 1.2552489 0.004686502 -1.5826898
-0.19936289 0.68581945 1.7583389 0.16182564 0.7933339 0.67314 2.1093295 -0.21461579
-0.038761605 0.22063527 0.029016916 0.92011166 0.89691526 -1.4559314 1.7982113 1.0580678
-0.08772498 -0.30716932 1.4867139 1.1258483 -0.14954142 0.11433139 1.0268457 1.9844894
1.10035 0.14379348 1.662864 -1.2282311 -0.050958853 0.98870015 -0.88999677 0.28922203
0.2968635 -0.4138211 -0.515283 0.23572354 0.4015864 0.73148197 -0.67390484 0.9135725
-0.19270638 0.9565822 0.24982266 -1.5902727 -1.4398365 0.647898 0.27679166 -0.20434994
0.524975 0.73408175 1.7170906 1.6965127 -0.99525887 1.2255558 1.9922459 0.39905074
0.9137931 0.58728504 -0.8672558 2.8436341 0.09399632 -0.9363862 -0.81515086 0.7373083
-1.1964676 1.8351756 -1.0772237 1.0360407 0.1382494 1.0783391 0.724945 0.6188071
0.0017546822 -1.4117069 0.864193 2.065108 1.630798 -0.1260275 -1.7866632 0.30514804
1.0477755 1.134853 0.39605054 -0.20584533 -0.03449923 1.3129985 -0.38887864 -0.51772034
-0.007441321 -0.35422462 -0.77604467 -1.1068418 1.8781961 1.2817849 0.5610855 0.097766675
-1.1928697 -0.29597253 0.122781254 1.9494107 0.69715136 -0.48986337 1.494109 1.2516842
1.3189601 -2.5824854 0.6367212 0.811719 1.5768008 0.40101442 -0.9521069 1.1966892
0.8865098 0.5071945 0.9561484 0.43818668 1.4007546 2.0714679 1.7527039 -0.86189675
1.0587596 -0.95519197 0.31240764 1.6106731 1.3819407 1.0570458 -0.7226905 0.80211765
-1.3132578 2.02951 0.0652292 0.1593209 0.7765418 1.4288601 1.0090264 0.68762964
2.2688215 0.4830054 -2.210474 0.3034672 1.5245225 -1.8988583 -0.20932534 -0.5756297
0.8014832 1.2217047 -1.708759 -0.5985879 1.3637176 1.0915469 -0.0016115733 -1.7191905
1.2836428 0.12768844 -0.011478103 1.9654192 1.1612471 -0.7744473 3.1097658 -0.85814244
0.46173638 0.07263114 -0.752969 0.6438465 0.9041604 -0.924136 1.5302067 0.77488536

n1.running_var f4 [256]
00000000: f65b 8c3f 992b 0c41 7ef7 a240 2476 643f
00000010: ecff 1a40 6238 3840 3f36 3a3f f890 ec3f
00000020: 1659 a940 2c61 883f 6c7f 5d3f 8b0a 4d40
00000030: f15f f23e 7b90 2e40 f4f7 0640 dbaf bd3f
00000040: 0ebe a940 2fb6 b13f 8af6 2c40 6f1a 3f40
00000050: 274a 4d40 20f6 fb3f 227e ca40 6607 b43f
00000060: 59f4 6e40 1322 bf3f 9880 0240 1053 0641
00000070: 16b7 9040 67d0 3e40 07f2 b040 13e8 263f
00000080: abe8 fa3f 3b4e 4140 ab16 c03f c71f 1941
00000090: b31b 6540 3838 e33f bdfe 9f3f 8f04 2140
000000a0: ed9c 1440 c6a4 0b40 7237 9b3f b895 3940
000000b0: cf41 6940 9ec1 eb40 9986 e73f e249 8f40
000000c0: 2942 ef3f 56ac 1a40 98ec 2540 7943 1140
000000d0: 8953 0540 9798 c43f ac8f dd3f 681b 333f
000000e0: c69f a640 b729 1b40 128a ce40 d5c7 693f
000000f0: 4597 a93f ce52 2740 217a 5540 e12c a23f
00000100: c8bb 9340 014c 8c3f ee39 b03f 97b3 4741
00000110: d548 343f 29bb 1540 3a02 8e3f e28a 8f3f
00000120: 75d1 d23f a87e 1b40 b56a 8540 b77e 153f
00000130: b558 c13e dd0c 993f b5ff 903f 55ac e93f
00000140: 5c26 3040 011a b640 aba8 7c40 d75d df3f
00000150: b324 2340 0c83 0c40 4012 fd3f 9d9a 1b40
00000160: dc03 e23f 84d9 4f3e cbba e43e f68c bd3f
00000170: 868d 4440 fdbe 1840 aebc 483f 7a14 863f
00000180: d18f 2f40 2f71 b640 7b98 d53f 0201 b33f
00000190: 819f 0f40 a08c b33f f12a dc3f 38ca b940
000001a0: ebfd 9740 472b 6141 4506 cf3f 7722 e33f
000001b0: c911 4340 969d 533f c44c f73f 1e45 ff3f
000001c0: a24f 7c3f 7fd8 a13e 5835 a73f 2544 693f
000001d0: 8f3d 843f 207a ac3e 28e2 2940 b23b 5040
000001e0: 0a5a b940 0602 2a40 c966 e33f 2c44 1a40
000001f0: 6b72 ae3f 39dd 7540 462a 3340 3b58 a040
00000200: 0306 913f cd67 0140 7b44 4440 dfe4 2a40
00000210: 2016 1140 5ef8 b93f 996d 8940 2e77 c53f
00000220: b36b 5341 73be 3b40 f0f0 7c40 e3b6 9640
00000230: c702 053f d61b 9240 8bc3 c13f a0d5 4140
00000240: d3bb e440 1fb5 0b3f a26f 2541 57d7 923f
00000250: b331 d240 0484 0340 6baf e23f 2de8 9040
00000260: b666 1c40 c8d7 5b40 9b45 f43f c621 df3f
00000270: 142f c140 cee5 683f 67bc a540 8cde 0340
00000280: 39a6 8b40 7d01 5041 16f1 b73f c366 8040
00000290: 0c7a 2740 c37a dd3f ee6b 3840 6d83 ab40
000002a0: c0e5 8d3f 940a 4440 8c82 5a3f e99a 5040
000002b0: 1a75 e040 a6f7 e63f 12de 6040 83d1 f83f
000002c0: ee7e fd3e f442 e83e 50b5 ec3f 17a5 0540
000002d0: 737a d53f 8d8f c13f 920d 0a40 3228 573f
000002e0: b4ac f53f 3dc9 ff3f 6e23 6341 02c0 e73f
000002f0: f2c9 df3f f95a 3a3f be7a 2f3f cd76 2d3f
00000300: 3903 d240 af1d fe3f a992 6040 bc01 9b3f
00000310: b530 9f3f 90f0 6e3f ee71 7d3f 8547 f83f
00000320: 6025 933f bf08 4e40 19db e93f 7401 4b40
00000330: 08cf 8a41 9716 0b40 a77f 0d41 c0b0 9340
00000340: 80e6 ab40 64b7 aa3f 3417 4440 94d2 0040
00000350: 7b64 923f 8d1e a73f 4a71 3340 97bf 7140
00000360: e3e6 5140 f395 7a40 da6f c040 fd0e 2140
00000370: 4bf0 a93f 3303 ef3f d612 6041 c984 9040
00000380: 652e e03f 2643 e13f 8a4d 753f 579c 0740
00000390: 24ef 7f40 5a18 8640 f651 9540 5c89 0940
000003a0: a0c0 9f3f 78b1 9a3f 83da c93f 6387 4240
000003b0: a4ae b040 4dd7 b53f 4266 d13f 210a 1040
000003c0: fd4a 9440 0fd8 5140 7ed4 9f40 7901 ed3f
000003d0: 7574 8841 439d bf3e 9fd4 763f 2c13 9b40
000003e0: ce41 243f 7e5e 3a40 6934 5040 9fbf a440
000003f0: 32f6 473f 3cd4 c740 f0da 9e40 d390 5f40
1.0965564 8.760644 5.0927114 0.8924277 2.4218702 2.8784413 0.7273902 1.8481741
5.2921247 1.0654655 0.86522555 3.2037685 0.47338822 2.7275684 2.1088839 1.4819292
5.30445 1.3883723 2.7025476 2.9859884 3.207651 1.9684486 6.327897 1.4064758
3.7336638 1.4932274 2.0390987 8.395279 4.5223494 2.9814699 5.5295444 0.6519787
1.9602255 3.0203998 1.5006918 9.570258 3.5798156 1.7751532 1.2499615 2.5159032
2.322078 2.181932 1.2126296 2.899763 3.6446416 7.367385 1.8087951 4.477769
1.8692065 2.4167686 2.5925655 2.2697432 2.0832236 1.5359067 1.730947 0.69963694
5.2070036 2.424421 6.4543543 0.91320544 1.3249289 2.614429 3.3355792 1.2669946
4.6166725 1.0960695 1.3767679 12.481345 0.7042363 2.3395483 1.109443 1.1214259
1.6470171 2.4296055 4.1692758 0.58396477 0.3776299 1.195705 1.1328036 1.8255717
2.7523413 5.6906743 3.9477947 1.7450513 2.549115 2.1954985 1.9771194 2.4313118
1.7657428 0.2029782 0.44673762 1.4808643 3.071138 2.386657 0.784129 1.0474999
2.7431529 5.7013164 1.6687158 1.3984683 2.2441103 1.402729 1.7200605 5.805935
4.749746 14.073066 1.6173788 1.7744893 3.0479605 0.8266233 1.9320302 1.9942968
0.9855901 0.31610486 1.3063154 0.91119605 1.0331286 0.33686924 2.6544285 3.2536435
5.792241 2.6563735 1.7765743 2.410411 1.3628668 3.8416274 2.7994552 5.0107703
1.132996 2.0219605 3.0666797 2.6702192 2.2669754 1.4528921 4.2946286 1.5426996
13.213794 2.933499 3.9522057 4.709825 0.5195736 4.565898 1.51378 3.0286636
7.1479278 0.54573244 10.339754 1.1471967 6.568567 2.0549326 1.7709783 4.528342
2.443769 3.4350452 1.9083742 1.7432182 6.036997 0.90975654 5.1792483 2.0604582
4.364041 13.000363 1.4370449 4.012544 2.6168242 1.7303089 2.8815875 5.359793
1.1085739 3.0631456 0.8535545 3.259455 7.0142946 1.8044326 3.513554 1.9438938
0.49510902 0.4536358 1.8492832 2.0882013 1.6677994 1.5121933 2.1570783 0.8404571
1.919333 1.9983288 14.19615 1.8105471 1.7483504 0.72795063 0.68546665 0.677594
6.5628934 1.9852809 3.5089514 1.2109904 1.2436739 0.9333582 0.9900197 1.9396826
1.1495781 3.2192838 1.8269988 3.1719637 17.35109 2.1732538 8.843665 4.615326
5.371887 1.3337216 3.0639162 2.0128527 1.1436914 1.3056198 2.8037896 3.7773187
3.2797172 3.9154022 6.0136538 2.5165398 1.3276457 1.8672851 14.004599 4.516209
1.7514158 1.7598617 0.9582144 2.1189172 3.998971 4.1904726 4.666255 2.1490088
1.248066 1.2085409 1.576981 3.0395133 5.5213184 1.420633 1.6359332 2.2506182
4.634154 3.2788122 4.994689 1.8516074 17.056864 0.3742467 0.96418184 4.8460903
0.6416291 2.9120173 3.2531989 5.1483912 0.7811004 6.2446575 4.964226 3.4932144

fc2.weight f4 [128, 256]
00000000: 0b49 2a3c 4776 99bd 136b dd3d cb4f 13be
00000010: bc8f 073d fbf5 36bd da0d 883d 8b6a e83b
00000020: 0013 9f3d 1a04 1f3e 54e2 cbbd 1b23 06be
00000030: c32b bebd ad12 4b3d f9e8 133e eb45 95bd
00000040: 8b44 0a3e 40b0 e43d e4f2 e53c c31b a33d
00000050: 7812 a23d b891 023d 1cd8 a13c 984d f43b
00000060: 8353 243e 85f6 b93d f0c6 c9bd 2f1e 483d
00000070: cedb 213e a16a 563e 25b3 b23d fa99 1e3e
00000080: 9772 053d dd1c 863d a797 403d ec0a c63d
00000090: e2be d8bb c8a1 4d3b ea75 51bd 9bfb a03d
000000a0: 8c9f f9bc cad2 80bd ea92 2cbd 6c1e c8bd
000000b0: e0ed 2cbe 38cb da3c 9ef4 613e a219 90bc
000000c0: 3a91 14be 3a3c 3d3d 22e2 87be 910d e1bd
000000d0: ef20 03be a015 093e b2c4 afbd cb26 0d3e
000000e0: 33be 84bd 827e 263e 4110 c83d 482e 753d
000000f0: 5180 cabd 30d2 853b 77e6 e63d 34bf f03d
00000100: 534e 803d 5d1c d2bc fe44 263e 19ff 003c
00000110: 4bef 083e 05fc 163c e0f3 22bd f246 b33b
00000120: 25ab 5abd c473 523c b191 d93d 2abd 603e
00000130: 3175 e33d ce4d 133e a43a 833d 2857 bcbc
00000140: 2b48 e0bd cae1 90bd 285d 88bb 61ee 04be
00000150: 64b8 013e 84c1 7c3c 19f6 823d b73a d7bc
00000160: cc19 6c3d 6a34 433e fb8b 2b3e 98d9 89bc
00000170: ad8c 4f3e 5ff9 043c f831 e83d 85a0 e8bd
00000180: 031c b3bd 74cb 653d fb27 b53d 845e d5bd
00000190: ab83 ccba 84c7 3cbd 5070 cabc a8c0 053d
000001a0: 2394 a73d d0f6 d6bc bb57 17be dc5b 753d
000001b0: f9df b4bc dfa3 9dbd 90d0 c83d ab38 cdbd
000001c0: 4d3e e23d 59bf 303e 2124 573c 4293 de3d
000001d0: a739 22be c517 733e df01 203b 20f1 5a3d
000001e0: 3e4c b2bb b805 b7bd 0cd4 d63d f117 adbd
000001f0: 6cd3 3d3e 3ecd a5bc aab9 183c d26b 8e3c
00000200: 3d17 8ebb 36bc dcbc 4f50 3bbd b328 df3d
00000210: d76b 643d 1038 083e 652f ebbd 40bc adbc
00000220: 36a7 f1bc dc79 0cbe 67df cc3d c067 8f3d
00000230: 2861 aa3d 964d a3bd 606e ae3d 71d4 1d3e
00000240: dd28 dbbd ab93 33bd e712 7cbd e70c dcbd
00000250: c451 183d 75f5 123c c956 363e b35a ad3d
00000260: 67f7 91bd 60f0 2b3e 4a32 1f3e f106 8fbd
00000270: d8bb ac3c 7e70 0fbc 9aad 8e3d c929 85bd
00000280: 6347 e13c 23f8 3c3d 83b5 8a3d 0db8 8b3b
00000290: 331f 72bd f0ee 003e 174d 863d bd95 d93c
000002a0: 475a 82bd 07a0 113d 0216 9a3d 9afb a0ba
000002b0: 14c1 e93c 97ee 43bd f8d3 aa3d 15ff 4dbc
000002c0: 650c debd c9e0 f43d 3d4b 113d 08d5 2dbe
000002d0: 04d7 c43c b2c1 ae3d 7fb0 843c 62b1 903a
000002e0: 3556 cebc 95ca 2e3e 72aa b4bc cec4 40bd
000002f0: 31f4 673d 9a89 cc3c 568a 163d 3415 083d
00000300: 7a1c a43d 8f9d 46bd fd8a 99bb 78c2 e83c
00000310: 4a18 81bd 2dd3 433d 8192 04be 38ba 303e
00000320: 88d4 013e 9f29 213d 8da9 84bc ef64 b8bd
00000330: 45f0 2ebc ca19 b63d 3e08 b0bc 5c2a 3c3d
00000340: 63c4 86bd 8b6c 3b3d 4286 343e 49e8 183c
00000350: c795 84bd 54fb c9bd 0077 a03b 59f8 333d
00000360: 584b 26be 4b2b 363d 042b 553d ecdb f23d
00000370: c570 41bd 6c82 a9bd 13a3 1b3d 9b6b 4e3d
00000380: 5a1f d5bb 0f6a 42bd 1f8b 6fbd cdcb febb
00000390: da21 063c 313d 283e 7cfa 1b3e 0998 b9bd
000003a0: 9f37 013e 0042 60bd 4474 483d ecd0 e8bd
000003b0: 74a3 c7bb 0613 ae3b 1b6e 323e 17b1 9a3d
000003c0: 705b 2a3d 35c6 9cbb ca44 cebc ce77 073e
000003d0: 5b41 0b3c acfe 0ebe 3524 883d d68a 9cbb
000003e0: 28a4 bebd b2ca 543c 3536 963d f25d adbc
000003f0: b0bf eabd 5328 ee3d a499 663d 704c 20bd
0.010393391 -0.07493263 0.108114384 -0.14385907 0.03309606 -0.04466818 0.06643267 0.007092779
0.07767296 0.15528908 -0.09955278 -0.13099329 -0.09285691 0.049578357 0.14444341 -0.072887264
0.1350271 0.111664295 0.02806992 0.079642795 0.07913679 0.03187725 0.01975637 0.007455539
0.16047482 0.09080223 -0.098523974 0.04885691 0.15806505 0.20939113 0.08725575 0.15488425
0.032579985 0.06548474 0.047019627 0.09670052 -0.006614552 0.0031376947 -0.051137842 0.0786049
-0.030471586 -0.06290205 -0.042132296 -0.097714275 -0.16887617 0.02670823 0.2206597 -0.017590348
-0.14508525 0.046200015 -0.26539713 -0.10988916 -0.12805532 0.13387156 -0.085824385 0.1378433
-0.0648159 0.16259196 0.09768725 0.05985859 -0.09887756 0.004083894 0.112744264 0.11755219
0.06264939 -0.02564829 0.16237256 0.00787332 0.13372533 0.00921536 -0.03978336 0.005471104
-0.053385872 0.0128449835 0.106234916 0.2194716 0.11106337 0.14385149 0.06407669 -0.022990778
-0.10951265 -0.07074316 -0.0041614957 -0.1298156 0.12667996 0.015426997 0.06394596 -0.026273115
0.05764179 0.19062963 0.16752617 -0.01682739 0.20268507 0.008116095 0.11337656 -0.11358742
-0.08745577 0.05610223 0.08845516 -0.10418418 -0.0015603205 -0.04608871 -0.024711758 0.032654434
0.08182552 -0.026240736 -0.1477956 0.059902057 -0.022079455 -0.076972716 0.09805405 -0.10020574
0.11047039 0.17260493 0.013131172 0.10867931 -0.15842305 0.23739536 0.0024415178 0.05345261
-0.0054412177 -0.08936638 0.104896635 -0.08451832 0.18537682 -0.020239469 0.0093216095 0.017385397
-0.0043362663 -0.026945215 -0.045730885 0.10896435 0.055766907 0.13302636 -0.11483649 -0.021207929
-0.029498678 -0.1371836 0.10003548 0.070022106 0.08319312 -0.07973783 0.08517146 0.15413071
-0.107011534 -0.043842 -0.061541464 -0.107446484 0.037187353 0.008969654 0.17806543 0.08464565
-0.071272664 0.16790915 0.15546528 -0.06983746 0.021085665 -0.008754848 0.069667056 -0.065021105
0.02749986 0.04613508 0.06772902 0.004263884 -0.059111785 0.12591147 0.065576725 0.026560659
-0.06364875 0.035553005 0.07523729 -0.0012282014 0.02853445 -0.04783496 0.08341211 -0.012573023
-0.10842208 0.11956937 0.035472143 -0.16975796 0.024028309 0.08533038 0.016197441 0.0011039192
-0.025187591 0.17069466 -0.02205393 -0.047062688 0.056629363 0.024967957 0.03675302 0.033223346
0.08013244 -0.048490103 -0.004685758 0.028413042 -0.06303461 0.047808815 -0.12946512 0.17258537
0.1267873 0.039346334 -0.01619413 -0.090036266 -0.010677402 0.088916376 -0.021488305 0.045938835
-0.065804265 0.04575781 0.1762934 0.009332725 -0.0647388 -0.0986239 0.0048969984 0.043938015
-0.16239679 0.04447488 0.052042976 0.11858353 -0.047226686 -0.08276829 0.037997317 0.05039559
-0.0065039815 -0.047464427 -0.058482286 -0.00777576 0.008186782 0.16429593 0.15232271 -0.090622015
0.12618874 -0.054750443 0.048939005 -0.11367974 -0.006092483 0.0053123264 0.17424814 0.075533085
0.041591108 -0.0047843703 -0.025179286 0.13229296 0.008499469 -0.13964337 0.06647531 -0.0047772927
-0.09308654 0.012987779 0.07334558 -0.02116296 -0.11462343 0.11628785 0.056298867 -0.039135396

fc2.bias f4 [128]
00000000: e22f 43bd e7bb bdbd 1881 c9bb d143 a0bd
00000010: b32c 8a3b 44bc 613c 44ae a4bd d978 47bd
00000020: 12b6 71bd b2dd 9ebd 6eac 8abd f6ec 95bc
00000030: fd7c 0a3d 9ec3 763b ca99 91bd c090 973c
00000040: cf72 6fbd 1319 f83a 4a11 86bd b5ef 98bd
00000050: 60b2 7fbd ca7b 8fbd dde5 a0bc c9f3 89bd
00000060: ebd5 15bb c332 423e fc54 aabd 0ccf 283d
00000070: 3449 78bd f66b 88bd 605c 9a3c 1bfb 363a
00000080: 0040 d7bc 8177 04bd 3fd9 3cbd 9246 93bd
00000090: 4e1f b8bc 53b0 a6bd a64c 043e ceca 92bc
000000a0: 09fc 4a3d fed4 34bd d4d2 773d ccee 84bd
000000b0: c11d fdbc 2ebb 9d3c 6d7a db3c ce54 47bd
000000c0: 9814 f8bc 326e a8bc fca0 853d efc7 81bd
000000d0: 3404 b8bd 4308 c3bc ba00 a23c da1a 5abc
000000e0: b999 ad3b 4a48 c3bd 1e9a 59bb d401 953c
000000f0: 3207 6dbd 0326 2dbc 6d7d cdbd cef6 843c
00000100: d939 4ebc 1569 1bbc 2d2d 573c 2dc0 433c
00000110: 90b9 9cbd fb23 49bd 24a0 f5bc ccee bebd
00000120: 13f6 b3bc 7976 cabc 4478 563d 7903 14bc
00000130: 9fa5 cdbc e36e 4bbc 4f66 84bc 8511 82bd
00000140: 8358 a2bc 34c0 34bc 0250 5fbd b85d 693c
00000150: b2e8 ce3c e031 9b3b 3ba3 f43b 7f33 87bd
00000160: 5f8b 48bd af18 a7bc dd2b b0bc 9420 29bd
00000170: 0e47 a1bd 66fd 8bbd f85a 173e af74 bfbc
00000180: d5d8 04bb 5c57 32bd 5487 0fbd 6832 1d3e
00000190: 16d0 67bc a5f3 0c3e 750b 27bd 7bde dabb
000001a0: d707 04bc 2fa7 083d 017b afbd 7def 75bd
000001b0: c9d7 bcbd 16de a03b 904c eb3d 576c bfbc
000001c0: d68e 72bd 755e 27bd b748 c3bc 7622 24bd
000001d0: dc26 b4bd 0eb9 1abd c447 93bd 9d89 e6bd
000001e0: 027f 84bd 616f 55bc 3200 adbd 7e91 7b3d
000001f0: 8251 403c 30ca fbbc 4f3e 86bc 007b 3a3c
-0.047653086 -0.09264355 -0.0061494224 -0.07825435 0.0042167543 0.013777796 -0.08041051 -0.048699234
-0.059011526 -0.07757129 -0.067711696 -0.018301468 0.033810604 0.0037653218 -0.07109411 0.01850164
-0.0584591 0.0018928371 -0.065462664 -0.074675955 -0.06242597 -0.07006033 -0.019640857 -0.067359515
-0.00228631 0.18964677 -0.08316991 0.04121308 -0.060616687 -0.06661217 0.018842876 0.00069801667
-0.026275635 -0.03234053 -0.04610562 -0.071911946 -0.022475865 -0.081391 0.12919864 -0.01791897
0.049556766 -0.044148438 0.060503796 -0.064908594 -0.030897977 0.019254293 0.026791776 -0.04866486
-0.030283257 -0.020560358 0.06524846 -0.063369624 -0.08985177 -0.02380765 0.019775737 -0.013312066
0.005297866 -0.095352724 -0.0033203433 0.018189348 -0.05786819 -0.010568145 -0.10033689 0.016230967
-0.012587034 -0.009485503 0.013133329 0.011947674 -0.07652581 -0.04910658 -0.029983588 -0.09322891
-0.021967923 -0.024714695 0.052360788 -0.009034031 -0.025103388 -0.012416574 -0.016162066 -0.06350998
-0.019817596 -0.011032153 -0.05451966 0.014243536 0.025257442 0.00473617 0.0074657477 -0.06601619
-0.04896104 -0.020397512 -0.02150529 -0.041290835 -0.07874881 -0.06835441 0.14780796 -0.023371069
-0.0020270844 -0.043540344 -0.03504117 0.1535126 -0.014148733 0.13764818 -0.04078241 -0.006679354
-0.00805851 0.033362564 -0.08568383 -0.060042847 -0.09220845 0.004909287 0.114892125 -0.02336709
-0.05921825 -0.040861566 -0.023838384 -0.040071927 -0.08796474 -0.03777414 -0.071914226 -0.112567164
-0.06469537 -0.013027043 -0.08447303 0.06141805 0.011738183 -0.030736059 -0.016387133 0.011381865
