checkpoint_actor_2_best.pth (torch_old, 163760 bytes, 10 tensors)

fc1.weight f4 [256, 24]
0	0xbbbfe04d	-0.005855596
1	0x3d3702ad	0.044680286
2	0xbd528c4e	-0.051403336
3	0xbcbc18d1	-0.022961052
4	0x3d526f05	0.051375408
5	0xbd977e5d	-0.07397149
6	0x3ceaaf25	0.028647969
7	0xbd2f4c04	-0.042797104
8	0x3c95c599	0.018282698
9	0x3da9030f	0.082525365
10	0x3c99ff4f	0.018798498
11	0x3d0b83ff	0.03406143
12	0xbd41013d	-0.04712032
13	0xbd273464	-0.040821448
14	0x3a7ba16a	0.00095989427
15	0x3d267bce	0.040645413
16	0x3bdb48ee	0.0066920435
17	0x3e0762d5	0.13221295
18	0x3da5a6d5	0.08088461
19	0x3d38146f	0.044941362
20	0xbc9623f3	-0.018327689
21	0xbd9cf77d	-0.07664392
22	0x3d1ba590	0.03799969
23	0x3d5fb9bc	0.05462049
24	0x3a988d54	0.0011638799
25	0xbe094156	-0.1340383
26	0xbd67c274	-0.05658193
27	0xbc13c4fc	-0.009019133
28	0x3de4f893	0.11180224
29	0x3d19d576	0.037557088
30	0x3cedb8d9	0.029018806
31	0xbd30b24a	-0.04313878
32	0xbb1a661a	-0.0023559392
33	0xbe13bf85	-0.14428528
34	0xbc08346b	-0.008313279
35	0x3d0296c4	0.031882063
36	0x3da2a73e	0.07942055
37	0x3d65f540	0.05614209
38	0xbd1207d6	-0.035652004
39	0x3d897862	0.06712414
40	0x3d8eb44a	0.06967981
41	0xbd65dc45	-0.05611827
42	0x3c701fc5	0.014656012
43	0x3d8e4ebc	0.06948611
44	0x3ca11641	0.019663932
45	0x3d94d00b	0.072662435
46	0xbc946600	-0.018115044
47	0xbb28c67e	-0.0025753076
48	0xbe1a1e81	-0.15050699
49	0xbdd438c9	-0.103623934
50	0x3ceeff76	0.029174548
51	0x3c149a55	0.009069999
52	0xbcae58c9	-0.02128257
53	0xbd299163	-0.041398417
54	0xbd8b2513	-0.06794181
55	0x3cc0f040	0.02355206
56	0xbd34bb33	-0.04412384
57	0xbd39c76e	-0.045356207
58	0xbc96b2b2	-0.018395755
59	0x3d9ea2a7	0.07745867
60	0x3c6fdc9e	0.014640002
61	0xbd2be0be	-0.041962378
62	0xbb4534f6	-0.0030091382
63	0xbc925d47	-0.017866744
64	0xbda970d2	-0.08273472
65	0x3c9fd960	0.019512832
66	0x3ce0208a	0.027359266
67	0x3cc751ad	0.024330938
68	0x3d942e43	0.07235386
69	0xbcc2dff4	-0.02378843
70	0xbb8cdaa8	-0.004298527
71	0xbd890888	-0.0669108
72	0x3bfb4f50	0.007669367
73	0x3da629da	0.08113451
74	0xb9700af6	-0.00022892267
75	0x3d6ad79d	0.05733453
76	0x3d67bc02	0.056575783
77	0x3cdb856f	0.026797025
78	0x3cb85123	0.022499627
79	0xbd08d5d1	-0.033407036
80	0x3cfedd7b	0.03111147
81	0x3dd943da	0.10608645
82	0xbb3701bb	-0.0027924615
83	0x3c7e4349	0.015518972
84	0x3c0901e1	0.008362264
85	0x3c6298a1	0.013830335
86	0xbcacc034	-0.021087743
87	0xbcbb4d98	-0.022864148
88	0x3c22fc76	0.009947887
89	0x3d25d339	0.04048464
90	0x3baee2d2	0.0053370977
91	0xbcc88bbc	-0.024480693
92	0xbcf3cafc	-0.029759876
93	0x3e442ecb	0.19158475
94	0x3b538efe	0.0032281275
95	0xbd220294	-0.03955324
96	0xbccd0126	-0.025024962
97	0x3d09c49b	0.033634763
98	0xbc8d846c	-0.017275058
99	0x3d297ae1	0.041376952
100	0x3b63456f	0.0034678837
101	0xbd32c4b2	-0.043644615
102	0xbc038d26	-0.008029258
103	0x3dbbe33f	0.09174203
104	0x3d6abfc5	0.057311792
105	0x3e0fddfe	0.14049527
106	0xbd702ee8	-0.058638483
107	0x3cbf38d3	0.023342526
108	0x3cfc32f9	0.030786024
109	0xbd3b3736	-0.04570695
110	0x3c7ccd23	0.015429768
111	0x3de75eb8	0.11297363
112	0x3d5fb39a	0.05461464
113	0x3d99a366	0.07501869
114	0xbba30236	-0.004974629
115	0x3da5e0e2	0.080995336
116	0xbd34b60e	-0.044118933
117	0x3dc9d735	0.098555006
118	0x3d382632	0.0449583
119	0x3cf1ca0d	0.02951529
120	0xbd81dba4	-0.06340721
121	0xbd630a53	-0.055429768
122	0x3c91d7c6	0.017803084
123	0xbb7b6988	-0.0038362462
124	0x3d880843	0.06642201
125	0x3dccfe61	0.100094564
126	0xbc87fe83	-0.016600853
127	0xbc90977f	-0.017650364
128	0xbac4bc49	-0.0015009727
129	0xbcdaf251	-0.026726874
130	0xbd1e916a	-0.038712896
131	0xbd818281	-0.0632372
132	0x3d1f3c95	0.038876135
133	0x3d6dc077	0.058044877
134	0x3c206514	0.009789724
135	0xbd16283c	-0.036659464
136	0x3c86752d	0.016413296
137	0xbdfb09b6	-0.122577116
138	0xbcb21e4e	-0.021742966
139	0x3cef48a4	0.029209442
140	0x3ce24868	0.027622417
141	0x3d7adefa	0.061247803
142	0xbd54e151	-0.05197269
143	0x3b8fba56	0.0043862266
144	0xbda59da4	-0.08086708
145	0x3e1028d1	0.1407807
146	0xbd71c537	-0.05902597
147	0xbc07223e	-0.00824791
148	0x3c03aa1e	0.008036165
149	0x3c8f7bf7	0.017515166
150	0x3d218fea	0.039443888
151	0xbcb35da5	-0.02189524
152	0xbd467e6a	-0.0484604
153	0x3e0a5d97	0.13512264
154	0xbd1626cc	-0.036658093
155	0x3b5b7861	0.00334885
156	0x3d63c965	0.055611987
157	0xbdc7e94d	-0.097612955
158	0x3c618c5a	0.013766373
159	0xbd61d5c1	-0.055135492
160	0xbddecfdf	-0.10879492
161	0x3d49422c	0.049135372
162	0xbd0df7b0	-0.03466004
163	0x3bb334f1	0.0054689576
164	0xbcb7709a	-0.02239256
165	0xbd8643a8	-0.06555873
166	0x3d16abef	0.036785062
167	0xba97226e	-0.0011530647
168	0x3d37a85c	0.044838294
169	0x3d44ce55	0.048048336
170	0xbd4cc222	-0.049989827
171	0x3dca15b9	0.098674245
172	0xbd4051a3	-0.046952855
173	0xbc3fab16	-0.011698505
174	0x3d591f9d	0.053008664
175	0x3dd5e10a	0.104433134
176	0x3b0a569b	0.002110875
177	0x3e2d50fa	0.16925421
178	0xbc111cc5	-0.008856957
179	0xb9a9d406	-0.00032392162
180	0xbcec2f13	-0.02883104
181	0x3ce632a3	0.028100317
182	0x3cfd9a6a	0.03095742
183	0xbc4e01dc	-0.0125736855
184	0x3da19903	0.07890513
185	0x3dcd8d36	0.100366995
186	0xbcf2790e	-0.029598739
187	0x3ce629d1	0.028096111
188	0xbd72d023	-0.059280526
189	0xbc898b0c	-0.016789936
190	0x3c9c8634	0.019106962
191	0x38ce9714	9.850986e-05
192	0x3c9b2666	0.018939208
193	0xbd953094	-0.07284656
194	0x3cec92e7	0.028878642
195	0xbd1c28fb	-0.03812502
196	0xbcb451d1	-0.02201167
197	0x3e108c2e	0.14115974
198	0xbc403a43	-0.011732641
199	0x3bb41812	0.0054960335
200	0x3c8808a2	0.016605679
201	0xbd4967d2	-0.049171276
202	0xbc9f4b98	-0.019445226
203	0xbc81bb3f	-0.015836356
204	0x3d3b0b80	0.045665264
205	0x3d644245	0.055727262
206	0x3d595e8c	0.053068683
207	0x3d560c04	0.052257553
208	0x3d7018e1	0.058617476
209	0xbe0ac7ec	-0.13552827
210	0xbd475014	-0.048660353
211	0xbd32338f	-0.0435062
212	0x3c80dea4	0.015731163
213	0x3e010bcb	0.12602155
214	0x3d180c11	0.037120882
215	0x3ca3bea4	0.019988365
216	0x3d75af6d	0.059981752
217	0x3da79cec	0.08184227
218	0xbbbee42b	-0.0058255396
219	0xba18562a	-0.0005811179
220	0xbc60e245	-0.013725822
221	0x3c9819cd	0.01856699
222	0x3d1e46a3	0.038641583
223	0x3c87f65a	0.016596962
224	0x3dfd45b1	0.12366808
225	0x3d9d60fc	0.07684514
226	0xbd6c3467	-0.057667162
227	0x3d07ca71	0.033152048
228	0x3d654f45	0.0559838
229	0x3d480898	0.04883632
230	0x3be59123	0.007005827
231	0xbd8267a1	-0.06367422
232	0x3d1f06b5	0.038824756
233	0x3da5b8df	0.08091902
234	0x3b8eee1d	0.0043618814
235	0xbd5bb04b	-0.053634923
236	0xbc829991	-0.015942367
237	0x3d17f87e	0.037102215
238	0x3d2da8f2	0.042397447
239	0x3d0b76d6	0.034048878
240	0xbc9349d5	-0.017979542
241	0xbda559fd	-0.080738045
242	0xbc1e5d08	-0.009665735
243	0x3d29ed85	0.041486282
244	0x3d672506	0.056431793
245	0x3c8a5311	0.016885312
246	0xbce3f974	-0.02782891
247	0x3ce7bee0	0.028289258
248	0x3d1f5b0f	0.0389052
249	0xbe07f8f6	-0.13278565
250	0x3bece952	0.0072299624
251	0x3d28d75e	0.041221015
252	0x3d955cce	0.07293092
253	0xbc372c23	-0.011179957
254	0x3d45ce81	0.04829264
255	0x3d4380f4	0.0477304

fc1.bias f4 [256]
0	0xbe256c93	-0.16154699
1	0x3d1c818a	0.038209476
2	0xbd262928	-0.040566593
3	0x3e1e1ca3	0.15440612
4	0xbe4fb7db	-0.20284979
5	0x3bdff8d0	0.0068350807
6	0x3db84985	0.08998398
7	0x3cd91a1e	0.026501711
8	0xbd63b161	-0.055589084
9	0x3e44049d	0.19142385
10	0xbe223ec6	-0.15844259
11	0x3e42ae61	0.19011833
12	0x3d63a79a	0.05557976
13	0x3dc70255	0.09717242
14	0x3e135b69	0.14390339
15	0x3ca67b4e	0.020322468
16	0x3cb13855	0.021633307
17	0xbd298c34	-0.041393474
18	0xbe3d9e0a	-0.18517318
19	0x3db01e13	0.08599486
20	0x3e1c4ed2	0.15264443
21	0x3daecdc2	0.08535339
22	0xbd0294bd	-0.03188013
23	0xbe3b1c3f	-0.18272494
24	0xbb5c3b9f	-0.0033604873
25	0x3d5976fa	0.05309198
26	0xbe23a19e	-0.15979621
27	0x3e31bca6	0.1735712
28	0xbbb03b11	-0.005378135
29	0x3d6455a5	0.05574574
30	0x3e386439	0.18006982
31	0x3db56c4c	0.088585466
32	0xbde2881a	-0.110611156
33	0x3d9a2f0a	0.07528503
34	0x3df5d37a	0.120032266
35	0x3dd092e3	0.101842664
36	0xbdc46a2f	-0.095905654
37	0x3ca9f2ef	0.020745723
38	0xbe16313a	-0.14667216
39	0xbcbbe17c	-0.022934668
40	0xbe110c48	-0.14164841
41	0x3def04ca	0.11670835
42	0x3e4c85c0	0.19972897
43	0xbe4a7b58	-0.19773614
44	0xbdc34840	-0.09535265
45	0xbdb0d7e9	-0.086349316
46	0xbe125bb3	-0.14292793
47	0x3e3e32fe	0.1857414
48	0xbe217757	-0.15768181
49	0xbdda62e8	-0.10663396
50	0xbe2da4c5	-0.16957386
51	0xba2ee1ee	-0.00066712394
52	0xbe1ab5de	-0.1510844
53	0xbe0cc7c9	-0.13748087
54	0x3e4fda81	0.20298196
55	0x3dbad1c1	0.09122039
56	0x3db15a46	0.086597964
57	0x3e144ea1	0.1448312
58	0x3d10731f	0.035266038
59	0x3d07a8e9	0.03312007
60	0xbe1ced32	-0.15324858
61	0x3d6af047	0.057358053
62	0xbe234c87	-0.15947162
63	0xba69a269	-0.00089124456
64	0xbde2281c	-0.110428065
65	0xbdecf52c	-0.115702
66	0xbdf4c18f	-0.11950981
67	0xbdca5f47	-0.09881454
68	0xbdf89da4	-0.121394426
69	0xbde4920c	-0.11160669
70	0xbd983f15	-0.07433907
71	0xbe3efa2f	-0.18650125
72	0x3e275010	0.16339135
73	0x3d8c6ca5	0.0685666
74	0xbe4fe864	-0.20303494
75	0xbe50d858	-0.20395029
76	0xbdd285c9	-0.10279424
77	0x3da145e9	0.078746624
78	0x3e3f56d2	0.18685463
79	0xbd023cdc	-0.03179632
80	0x3df8bd9c	0.1214554
81	0xbde17d40	-0.11010218
82	0xbd2d8673	-0.04236455
83	0xbd01a639	-0.031652663
84	0xbe4b880a	-0.19876114
85	0x3a8c1190	0.0010686386
86	0x3d5d482f	0.054023918
87	0x3dfeca16	0.124408886
88	0xbe21b621	-0.15792133
89	0xbd7bafed	-0.061447073
90	0x3bfc609b	0.007701946
91	0x3cb166b1	0.021655412
92	0x3d0d09f8	0.034433335
93	0xbe1b4405	-0.15162666
94	0x3e223a31	0.15842511
95	0xbe3cde30	-0.18444133
96	0xbd911fad	-0.0708612
97	0x3dd04f09	0.10171325
98	0xbd5084a4	-0.050907746
99	0xbdc96cfd	-0.09835241
100	0xbe4e344e	-0.2013714
101	0x3e0ff50f	0.14058326
102	0xbb97d369	-0.0046333564
103	0x3dc9ee6e	0.0985993
104	0x3d0564c3	0.032566797
105	0xbe1b7675	-0.15181907
106	0xbd93b847	-0.072128825
107	0x3e14e641	0.1454096
108	0xbdccb6dc	-0.09995815
109	0xbdc08de8	-0.094020665
110	0x3de53fc0	0.111938
111	0xbdb51ff0	-0.08843982
112	0x3d087c29	0.033321533
113	0xbdcb3e50	-0.099239945
114	0x3d80b58b	0.062846266
115	0x3caa186a	0.020763595
116	0xbe25e7ca	-0.16201702
117	0xbe1e8a25	-0.15482385
118	0x3d99b5b0	0.07505357
119	0xbd88e942	-0.066851154
120	0x3de501c9	0.11181981
121	0x3c2e190a	0.010626087
122	0xbd8f00ca	-0.069825724
123	0xbd116ce8	-0.03550425
124	0xbdbe75cb	-0.09299811
125	0x3dce4688	0.100720465
126	0x3e25d876	0.16195855
127	0xbbd52dca	-0.0065057026
128	0xbe06998e	-0.13144514
129	0x3e164385	0.14674194
130	0x3e2a141a	0.1660923
131	0x3e0e7de4	0.13915211
132	0xbb71b0b3	-0.0036879003
133	0x3d4d84ea	0.050175585
134	0x3c2a29f8	0.010385983
135	0xbd9edceb	-0.077569805
136	0xbe4ef5b4	-0.20210916
137	0xbccc2396	-0.024919312
138	0x3db4c2fc	0.08826253
139	0x3df3d9ea	0.11906798
140	0x3d484d9c	0.04890214
141	0x3dbea424	0.09308651
142	0x3e02d965	0.12778242
143	0xbd21a0ba	-0.03945992
144	0x3e0881ca	0.1333076
145	0xbb8c74d0	-0.004286386
146	0xbd940e45	-0.07229284
147	0xbda25671	-0.07926644
148	0xbdf3a380	-0.118964195
149	0xbe20fd41	-0.15721609
150	0x3d3f8824	0.046760693
151	0x3e41258d	0.1886198
152	0x3cedb8ee	0.029018845
153	0x3ce1ff9c	0.027587704
154	0xbd9cd16d	-0.07657132
155	0xbda4c9e7	-0.08046322
156	0xbd82e058	-0.063904464
157	0x3d90b324	0.07065418
158	0x3d102c5b	0.03519855
159	0xbd999c80	-0.07500553
160	0x3d23ca4c	0.039987847
161	0xbd11fb6d	-0.03564017
162	0xbc6694cc	-0.014073562
163	0x3e1436bb	0.14474003
164	0xbdae394b	-0.085070215
165	0x3e430e89	0.19048513
166	0xbde4a85b	-0.11164924
167	0x3e41a711	0.18911387
168	0x3d9d08de	0.07667707
169	0x3da7db36	0.08196108
170	0xbd3f4838	-0.046699733
171	0xbd63dbf6	-0.055629693
172	0xbe18e498	-0.14930952
173	0xbe487342	-0.19575217
174	0x3e1256f3	0.14290981
175	0x3e4abea6	0.19799289
176	0x3d7054d9	0.058674667
177	0xbda3780a	-0.0798188
178	0x3d379b08	0.044825584
179	0xbbfad613	-0.007654914
180	0xbe34ae5a	-0.17644635
181	0xbe276fb6	-0.16351208
182	0x3d91256c	0.07087216
183	0xbd741891	-0.05959374
184	0xbd46b8fc	-0.04851626
185	0xbdfc3b30	-0.123159766
186	0x3db8605f	0.09002756
187	0xbdd2f566	-0.10300712
188	0xbd85a9c7	-0.06526523
189	0x3ddfa9a3	0.109210275
190	0x3e48f097	0.19623028
191	0x3e3a57f0	0.18197608
192	0x3da490f5	0.08035461
193	0x3bed84c8	0.007248495
194	0x3e1d1922	0.15341619
195	0x3e38cd51	0.18047072
196	0x3dbbb1db	0.091647826
197	0x3d75c7b4	0.060004905
198	0x3d492a2c	0.049112484
199	0x3caa2aba	0.020772327
200	0x3e09f544	0.13472468
201	0x3d6c8598	0.057744592
202	0xbe303c72	-0.17210558
203	0xbdf6f112	-0.12057699
204	0xbe3dd0fc	-0.18536752
205	0xbd7b3b29	-0.061335716
206	0x3c2afac4	0.010435764
207	0xbdb13d6a	-0.08654292
208	0xbe403c77	-0.18773066
209	0xbe07ef7a	-0.13274947
210	0x3db1eb7e	0.08687495
211	0xbc6b9307	-0.014378316
212	0xbd0c2e61	-0.034223918
213	0x3d07602e	0.03305071
214	0xbd309809	-0.043113742
215	0xbde3b80b	-0.11119088
216	0xbdbfd991	-0.093676694
217	0xbdaa62c9	-0.08319623
218	0xbe43b1d3	-0.19110803
219	0xbe40b879	-0.1882037
220	0xbd9e6457	-0.07733982
221	0x3d9cdef9	0.07659716
222	0x3e4c6971	0.19962098
223	0xbbb510f9	-0.005525705
224	0x3e0ebe70	0.13939834
225	0x3d8a37c4	0.06748918
226	0xbe267918	-0.16257131
227	0xbdd11afe	-0.102102265
228	0xbd656a05	-0.05600931
229	0xbe2c4644	-0.16823679
230	0x3cea4ee6	0.028602075
231	0x3d4695ef	0.04848283
232	0xbe22f3d3	-0.15913324
233	0xbd30012f	-0.04296988
234	0xbe385bf2	-0.18003824
235	0x3e5029a0	0.20328379
236	0x3df74c89	0.12075145
237	0xbd9db4cc	-0.077005
238	0x3e33aaa3	0.17545561
239	0xbe02d2f5	-0.12775786
240	0x3e2fd95d	0.17172761
241	0xbda0e017	-0.07855242
242	0x3d744a00	0.059640884
243	0x3e113fba	0.14184466
244	0x3dc2a2e2	0.09503724
245	0x3d4a9ec3	0.049467813
246	0xbcc0f141	-0.023552539
247	0x3ac47ee9	0.0014991435
248	0x3e327523	0.17427497
249	0xbd88a056	-0.06671207
250	0xbd87a899	-0.06623954
251	0x3cd59df2	0.02607629
252	0xbdcad34c	-0.09903583
253	0xbd9e0687	-0.07716089
254	0x3c828b1b	0.015935471
255	0x3e1d2cc3	0.15349106

n1.weight f4 [256]
0	0x3f5462a6	0.82963026
1	0x3e81f568	0.25382543
2	0x3f71ef09	0.94505364
3	0x3f0497e8	0.5179429
4	0x3f53d4f5	0.8274682
5	0x3f1f9d83	0.6234972
6	0x3f793409	0.97345024
7	0x3f00787b	0.5018384
8	0x3f0f4842	0.5596963
9	0x3f03bc56	0.5145925
10	0x3f25eb4d	0.64812165
11	0x3ed36b18	0.41292644
12	0x3f707739	0.9393192
13	0x3ee309d5	0.4434344
14	0x3f2eab31	0.6822997
15	0x3ea0f0b5	0.31433645
16	0x3f152857	0.5826468
17	0x3eff8695	0.49907365
18	0x3eb6aad4	0.35677207
19	0x3f61f86c	0.88269687
20	0x3e977100	0.295784
21	0x3f2a2118	0.6645675
22	0x3f21d8e7	0.6322159
23	0x3ecb296b	0.39680037
24	0x3f7f545e	0.9973811
25	0x3f6fffea	0.9374987
26	0x3f621aab	0.8832194
27	0x3f1d94f8	0.61555433
28	0x3f67c728	0.90538263
29	0x3edf0485	0.43558136
30	0x3e833874	0.25629008
31	0x3f8d0f61	1.1020318
32	0x3f1812a3	0.5940344
33	0x3f4856a6	0.78257215
34	0x3f290cab	0.66034955
35	0x3f80ca53	1.0061744
36	0x3f867cdb	1.0506853
37	0x3eeba36a	0.46023113
38	0x3f25220c	0.64505076
39	0x3e6211bc	0.22077078
40	0x3f716173	0.9428932
41	0x3f8da5d7	1.1066235
42	0x3efba31b	0.49147877
43	0x3f3e7baf	0.74407476
44	0x3f0dfac3	0.55460757
45	0x3f00f874	0.5037911
46	0x3f8145e6	1.0099456
47	0x3d258dac	0.040418312
48	0x3f24829c	0.64261794
49	0x3f1f97e0	0.6234112
50	0x3e679575	0.22615607
51	0x3f584dbf	0.8449363
52	0x3f812f46	1.0092552
53	0x3ed6b86a	0.41937572
54	0x3f4dcff8	0.8039546
55	0x3f31f85d	0.695196
56	0x3f8a0039	1.0781318
57	0x3e83f064	0.2576934
58	0x3f84b8e4	1.0368924
59	0x3ec70b01	0.38875583
60	0x3f89cb32	1.0765135
61	0x3eec318d	0.46131554
62	0x3f3259ea	0.6966845
63	0x3f3f4c75	0.7472604
64	0x3f83cbcd	1.029657
65	0x3f517f55	0.8183492
66	0x3f680da4	0.90645814
67	0x3f18e547	0.5972485
68	0x3e6cf96a	0.23142019
69	0x3f3c2f06	0.7350925
70	0x3f868057	1.0507916
71	0x3f8cd66b	1.1002935
72	0x3eb30d2e	0.34970993
73	0x3f840629	1.031438
74	0x3f46c5be	0.7764548
75	0x3f34a445	0.70563155
76	0x3f92582e	1.143316
77	0x3f31b9a5	0.69423896
78	0x3f37cdad	0.7179821
79	0x3e890872	0.26764256
80	0x3f239f83	0.6391527
81	0x3f927290	1.1441212
82	0x3f5b00aa	0.8554789
83	0x3ea81859	0.32831076
84	0x3f20071b	0.6251084
85	0x3f6601be	0.8984641
86	0x3f05b601	0.5223084
87	0x3f18c3bd	0.5967367
88	0x3f5e152f	0.86751074
89	0x3f8867f2	1.0656722
90	0x3f87e511	1.061678
91	0x3ea80899	0.3281906
92	0x3e781e89	0.24230398
93	0x3f639729	0.8890253
94	0x3f04a2c3	0.51810855
95	0x3f8c0e72	1.0941908
96	0x3f712be9	0.94207627
97	0x3f11103f	0.56665415
98	0x3f4a0ba2	0.78924
99	0x3f52dfcb	0.8237273
100	0x3ec2b2f5	0.38027158
101	0x3f8b629d	1.0889469
102	0x3f2f232d	0.6841305
103	0x3ef23200	0.47303772
104	0x3e78cbf5	0.24296553
105	0x3f89e174	1.0771928
106	0x3e0c9fb3	0.13732795
107	0x3f8873e9	1.0660373
108	0x3f14d6b4	0.5814011
109	0x3f17e8ad	0.5933941
110	0x3f3679f1	0.7127982
111	0x3f8f153d	1.1178356
112	0x3e8090d3	0.25110492
113	0x3eb0a5df	0.3450155
114	0x3f6a66c2	0.91563046
115	0x3ebf35a6	0.37345618
116	0x3f134295	0.5752347
117	0x3f7339b8	0.95009947
118	0x3ede9217	0.43470833
119	0x3f732611	0.9497996
120	0x3ee3e4b3	0.4451042
121	0x3f84958a	1.0358136
122	0x3fa330db	1.2749285
123	0x3f4eef48	0.80833864
124	0x3eebdf0a	0.46068603
125	0x3f68412b	0.9072444
126	0x3f650985	0.8946765
127	0x3f39c56d	0.7256687
128	0x3f901f05	1.1259466
129	0x3f2638b1	0.64930254
130	0x3f54f131	0.8318053
131	0x3f0c25af	0.54745
132	0x3f4eb926	0.80751264
133	0x3f1bfa69	0.6092897
134	0x3f3704f5	0.7149194
135	0x3f5e4179	0.86818653
136	0x3f8b5e95	1.0888239
137	0x3f80771b	1.0036348
138	0x3ec79662	0.3898192
139	0x3f8a4f0a	1.0805371
140	0x3f718ea3	0.9435827
141	0x3f523566	0.8211273
142	0x3f2a72f8	0.6658168
143	0x3ecfb3a9	0.40566757
144	0x3ec107bb	0.3770121
145	0x3f19a732	0.60020745
146	0x3e9bc37a	0.30422574
147	0x3f59cfe4	0.8508284
148	0x3e0ef3e5	0.13960226
149	0x3ddbcbac	0.10732207
150	0x3ebe8d19	0.37217024
151	0x3f680d1b	0.90645
152	0x3f819219	1.012271
153	0x3e7fa1ff	0.2496414
154	0x3ea906d0	0.3301301
155	0x3f6d63de	0.9273051
156	0x3f0b1a85	0.5433734
157	0x3e831cd4	0.25607932
158	0x3f3be499	0.7339569
159	0x3eaf9cde	0.34299368
160	0x3f4b7add	0.7948435
161	0x3f51d8b6	0.819713
162	0x3f995650	1.1979465
163	0x3e5b38ab	0.21408336
164	0x3f73eb9a	0.95281374
165	0x3f3239f3	0.69619673
166	0x3f82280a	1.0168469
167	0x3f889ac5	1.0672232
168	0x3f1787a5	0.5919135
169	0x3f1b2e6f	0.6061773
170	0x3efc68b1	0.49298623
171	0x3f7d4e13	0.98947257
172	0x3e992b04	0.2991563
173	0x3f825d5c	1.0184741
174	0x3f6314d2	0.88703644
175	0x3f969e15	1.1766993
176	0x3f80817f	1.0039519
177	0x3f854ee2	1.0414698
178	0x3eb505da	0.35356027
179	0x3f05445c	0.52057433
180	0x3e8d8bce	0.27645725
181	0x3f63620f	0.888215
182	0x3f41a7cf	0.7564668
183	0x3f5dcc27	0.86639637
184	0x3f668b0e	0.9005593
185	0x3f5b5dde	0.85690105
186	0x3f638061	0.88867766
187	0x3edc3f32	0.43016964
188	0x3f7d47fd	0.9893797
189	0x3e89a11f	0.26880738
190	0x3e55e6cf	0.20888828
191	0x3f53963c	0.82651114
192	0x3f8a4a24	1.0803876
193	0x3f0f10f8	0.5588527
194	0x3f8285a7	1.0197037
195	0x3efc7d43	0.49314317
196	0x3eb96aa3	0.3621417
197	0x3f172aad	0.59049493
198	0x3f6ed52a	0.9329401
199	0x3ec64e76	0.38731736
200	0x3f8ffacb	1.1248411
201	0x3ee191b9	0.4405649
202	0x3eb639aa	0.3559087
203	0x3eec20ed	0.4611887
204	0x3e873882	0.264103
205	0x3f913f1f	1.1347388
206	0x3eaa255c	0.33231628
207	0x3ed4babd	0.4154872
208	0x3ef0ae92	0.47008187
209	0x3f7ef588	0.995934
210	0x3f516468	0.8179383
211	0x3f5e556c	0.86849093
212	0x3f038306	0.513718
213	0x3f4b912a	0.7951838
214	0x3f3e53a0	0.7434635
215	0x3f84b3b1	1.0367337
216	0x3f3732a1	0.7156163
217	0x3f8bdf20	1.0927467
218	0x3f7121ac	0.94192004
219	0x3f3bd9b1	0.73379046
220	0x3e73f398	0.23823392
221	0x3f3b5e71	0.7319098
222	0x3ebaecf3	0.36508903
223	0x3f26ebc5	0.65203506
224	0x3f0ac534	0.5420716
225	0x3f8cb5a3	1.0992931
226	0x3ec9f198	0.39442134
227	0x3e76e0fb	0.2410926
228	0x3f5d02b0	0.86332226
229	0x3f81f9b3	1.0154327
230	0x3f0663d3	0.5249607
231	0x3f483dc4	0.78219247
232	0x3f8805d5	1.062678
233	0x3f34c982	0.70619977
234	0x3f132b79	0.5748821
235	0x3f72ce52	0.9484607
236	0x3f890a06	1.0706184
237	0x3f585cc5	0.84516555
238	0x3f730246	0.94925344
239	0x3f3cbf02	0.73728955
240	0x3efc72aa	0.49306232
241	0x3f211108	0.6291661
242	0x3ad1b850	0.0016000364
243	0x3f6af5f2	0.9178153
244	0x3ebef0ad	0.37292996
245	0x3e519c8d	0.20469876
246	0x3f0fddda	0.56197894
247	0x3edababb	0.4272059
248	0x3eb25dcd	0.3483719
249	0x3f142b2e	0.57878387
250	0x3f204c2c	0.6261623
251	0x3f43dafb	0.7650601
252	0x3f36e8a3	0.71448725
253	0x3f131a75	0.57462245
254	0x3f404f03	0.7512056
255	0x3ea89eba	0.329336

n1.bias f4 [256]
0	0x3d40a679	0.04703376
1	0x3dabb9bb	0.08385035
2	0x3e1e7d6c	0.15477532
3	0x3cb3cb60	0.021947563
4	0x3d567b9b	0.052363973
5	0xbc379482	-0.011204841
6	0x3d8c0b98	0.06838149
7	0xbd0b0e59	-0.03394923
8	0x3cd24bb3	0.025670862
9	0x3d326614	0.04355438
10	0x3da30bab	0.0796121
11	0x3cd5db37	0.026105506
12	0x3db311df	0.08743643
13	0x3d245045	0.040115613
14	0x3c58ed9b	0.013240243
15	0x3de5586c	0.11198506
16	0x3dfdeda2	0.123988405
17	0x3d9df696	0.07713048
18	0xbcdf5548	-0.027262345
19	0x3d28596c	0.041100904
20	0xbd7cfac2	-0.06176258
21	0x3c3fa846	0.011697834
22	0x3cc64530	0.024202913
23	0x3d3b4c9d	0.04572736
24	0xbcd10591	-0.02551535
25	0x3c914242	0.01773179
26	0xbd289165	-0.041154284
27	0x3d72099b	0.05909119
28	0xbc933bb2	-0.0179728
29	0xbc1328f8	-0.008981936
30	0xbd9174a3	-0.07102325
31	0x3dbae5e9	0.09125883
32	0x3e039210	0.12848687
33	0x3daa93d4	0.08328977
34	0x3d8b4444	0.0680013
35	0xbbca33a3	-0.0061707064
36	0xbca4e7a2	-0.020129982
37	0x3d82a402	0.06378938
38	0xbc077564	-0.008267734
39	0x3be2a080	0.0069161057
40	0x3d07c5a5	0.033147473
41	0x3d06167a	0.03273628
42	0x3d967d8f	0.07348167
43	0x3d9ec4d3	0.07752385
44	0xbd747d1c	-0.059689626
45	0x3d79452d	0.060856987
46	0xbd392c3f	-0.045208212
47	0x3d1f092c	0.038827106
48	0x3d62576b	0.05525915
49	0x3cf9e77d	0.03050589
50	0x3dce36ff	0.100690834
51	0x3d2e75e4	0.042592898
52	0xbccd3d4d	-0.025053645
53	0x3daeb7a4	0.085311204
54	0xbce01b4a	-0.027356762
55	0x3cf2658c	0.029589437
56	0x3dbd1ebd	0.092343785
57	0xbd4d7601	-0.050161365
58	0x3d7b1235	0.06129666
59	0x3d1b4c7b	0.037914734
60	0x3c17e717	0.009271405
61	0xbd4bcf53	-0.049758267
62	0xbbf54c2f	-0.0074858884
63	0xbd0c867c	-0.03430794
64	0xbbfe7895	-0.0077658393
65	0x3dadd05a	0.084870055
66	0x3d5b769b	0.053579908
67	0x3c91f892	0.017818723
68	0x3d9e1107	0.077180915
69	0x3b9c20b8	0.0047646426
70	0xbdc40c1c	-0.09572622
71	0x3daa83aa	0.08325894
72	0x3d9734c3	0.073831104
73	0x3d1a2330	0.037631214
74	0x3b836522	0.0040098587
75	0x3b84d8ac	0.0040541496
76	0x3d79a5ae	0.06094902
77	0x3e0efa00	0.13962555
78	0xbcd16237	-0.025559528
79	0x3dd89ea3	0.105771326
80	0x3cf95da2	0.030440155
81	0xbd9112a2	-0.07083632
82	0x3d054aaf	0.032541927
83	0x3e1050c3	0.14093308
84	0x3c04ffae	0.008117599
85	0x3d323938	0.0435116
86	0x3d1553a3	0.036456715
87	0x3ae78a69	0.0017665151
88	0xbc35628a	-0.011070857
89	0x3d0b133e	0.033953898
90	0x3a978507	0.0011560031
91	0xbd8cc61f	-0.06873726
92	0x3dd0e294	0.10199466
93	0xbd3a94d0	-0.045552075
94	0x3dea4dee	0.11440645
95	0xbcd4ea9f	-0.025990782
96	0x3d8d14f0	0.06888759
97	0xbd111648	-0.03542164
98	0x3c80750c	0.015680812
99	0x3cc1ef1b	0.023673585
100	0x3deb0383	0.11475279
101	0xbd273cfc	-0.040829644
102	0x3c86e85d	0.016468221
103	0x3cc5e9bc	0.024159305
104	0x3dbdcf81	0.09268094
105	0x3dee92e9	0.11649115
106	0x3d8080cb	0.06274565
107	0xbbb33a4b	-0.0054695955
108	0x3dd70447	0.10498863
109	0x3db858e7	0.09001332
110	0x3c2b9e32	0.010474728
111	0x3c8011c3	0.01563347
112	0x3dcefa69	0.10106356
113	0x3d97f349	0.0741945
114	0x3d497a54	0.049188927
115	0x3c5473b7	0.012967042
116	0x3d6acead	0.057326008
117	0x3d15e986	0.03659966
118	0x3d239d4a	0.039944924
119	0x3d97e8f5	0.0741748
120	0x3da09988	0.07841784
121	0xbce565ab	-0.02800258
122	0x3d8a0797	0.06739729
123	0x3cd86151	0.026413592
124	0x3d3acdf6	0.045606576
125	0x3dfa89df	0.12233328
126	0x3da18683	0.07886984
127	0x3ca08ede	0.019599374
128	0xbe096b3d	-0.13419814
129	0x3d461222	0.048357137
130	0x3d3adbd6	0.04561981
131	0x3d0a24d0	0.033726513
132	0x3d676e91	0.05650193
133	0x3dc4ccad	0.09609351
134	0xbba63d9c	-0.0050732624
135	0x3d1d0547	0.03833511
136	0x3db206db	0.08692714
137	0xbd4a6046	-0.04940822
138	0x3e0d841b	0.13819925
139	0x3d724552	0.05914814
140	0x3c915e49	0.017745154
141	0x3dadee52	0.084927216
142	0x3da07fcd	0.07836876
143	0x3e0ff7b4	0.14059335
144	0xbc2f923f	-0.01071602
145	0x3ce4a638	0.02791129
146	0x3d2d9dba	0.042386748
147	0x3c3a8a8b	0.01138557
148	0xbcaf6de6	-0.021414708
149	0xbc8f73dd	-0.017511303
150	0x3dc50a9a	0.09621163
151	0x3d9cd141	0.076570995
152	0x3d909fe0	0.07061744
153	0x3c59af4f	0.013286426
154	0x3d14cba5	0.036327023
155	0x3d568805	0.052375812
156	0xbc031da5	-0.008002673
157	0x3d6b51ca	0.057451047
158	0x3d520636	0.051275454
159	0x3d1e3113	0.03862102
160	0x3d3810d5	0.044937927
161	0x3d66b81f	0.056327935
162	0xbdbba233	-0.091617964
163	0xbc3d178b	-0.011541258
164	0xbc54dd99	-0.012992286
165	0xbd8abd59	-0.067743964
166	0x3c8fdaab	0.017560324
167	0x3c98efba	0.018668998
168	0x3ccf2a85	0.02528883
169	0xbcb85741	-0.022502543
170	0xbcee498b	-0.029087802
171	0xbcb8b3c4	-0.022546656
172	0xbd12001c	-0.035644636
173	0xbc503de8	-0.012710072
174	0xbc09d958	-0.008413635
175	0x3d0403bc	0.032230124
176	0x3ce19b70	0.027539939
177	0x3d292307	0.04129317
178	0x3ccf6755	0.025317827
179	0x3c8537c6	0.016261946
180	0x3b92ffd7	0.004486065
181	0xbb828f21	-0.0039843475
182	0x3da867fb	0.08222958
183	0x3d077bf3	0.03307719
184	0x3db1777c	0.08665368
185	0xbc214824	-0.00984386
186	0x3dbccc1e	0.0921862
187	0x3d292795	0.041297514
188	0x39f615e5	0.0004693709
189	0x3d5487bf	0.05188727
190	0x3d567598	0.05235824
191	0xbbfb326a	-0.007665922
192	0x3dd7138b	0.105017744
193	0x3e0b1997	0.1358398
194	0xbd148ba4	-0.036265984
195	0x3d6fba25	0.05852713
196	0xbc25da6b	-0.010122876
197	0xbda41ad9	-0.08012933
198	0x3cebf90a	0.028805275
199	0xbdfa33ca	-0.12216909
200	0xbd20e0d8	-0.039276928
201	0x3d47ab76	0.048747502
202	0x3cb32d7c	0.021872275
203	0xbca38072	-0.019958708
204	0x3dd16f75	0.10226337
205	0x3d9a15f0	0.075237155
206	0x3df7fa42	0.1210828
207	0x3d6fcf6c	0.058547422
208	0x3d643248	0.055712014
209	0x3e39d4c3	0.18147568
210	0x3da184f4	0.07886687
211	0xbd2cf36b	-0.04222433
212	0x3d821efc	0.06353566
213	0x3d6f80ca	0.058472432
214	0x3e14cb61	0.14530708
215	0x3ae1584c	0.0017192452
216	0x3d45191e	0.048119657
217	0xbc4232ce	-0.011852933
218	0xbcd9f6b7	-0.0266069
219	0xbbc97fcb	-0.0061492673
220	0x3df19254	0.11795488
221	0x3c979813	0.018505132
222	0x3cf87ae9	0.030332046
223	0x3cffa110	0.03120473
224	0x3cfe3104	0.031029232
225	0xbd46d803	-0.04854585
226	0x3d48c52b	0.04901616
227	0x3d4b8f87	0.049697425
228	0x3d0c32b4	0.03422804
229	0x3ce90bcd	0.02844801
230	0x3dd98f14	0.10622993
231	0x3d270990	0.040780604
232	0x3d8995a5	0.067179956
233	0xbc7b2f3b	-0.015331085
234	0x3de2788f	0.11058151
235	0xbd84a7d4	-0.06477323
236	0xbbd505b5	-0.0065009245
237	0x3dbb10f6	0.091340944
238	0x3c9f6011	0.019454988
239	0x3c2e76dd	0.010648456
240	0x3da86855	0.08223025
241	0x3da516b6	0.080609724
242	0xbc338e61	-0.010959239
243	0x3dd191b9	0.102328725
244	0xbd043363	-0.03227557
245	0xbd64e96f	-0.055886682
246	0x3d497310	0.049181998
247	0xbc708b51	-0.014681653
248	0xbdb6a2ac	-0.08917746
249	0xb9b4b221	-0.00034464992
250	0x3e267ac0	0.16257763
251	0xbd9ebd48	-0.07750946
252	0x3d6854ae	0.05672138
253	0xbd063477	-0.032764878
254	0x3d654bae	0.055980377
255	0x3d00a6ab	0.031408947

n1.running_mean f4 [256]
0	0xbf02291f	-0.50843996
1	0xbd0e10c6	-0.034683965
2	0x3fb06ab0	1.3782558
3	0x3f32bcdf	0.69819444
4	0xbf47a784	-0.77989984
5	0x3f403598	0.7508178
6	0x3f85df71	1.0458814
7	0xbf4b6149	-0.7944532
8	0x3f205843	0.62634677
9	0xbf59c44d	-0.85065156
10	0xbe519048	-0.20465195
11	0xbf86f498	-1.0543394
12	0xbf499b0f	-0.78752226
13	0x3fa914ab	1.3209432
14	0xbe4b29e5	-0.198402
15	0x3dbf2393	0.09332957
16	0x3f5e71db	0.8689248
17	0xbf1ee830	-0.6207304
18	0x3e8afa72	0.271442
19	0x3fead384	1.83458
20	0xbe5da53c	-0.21645063
21	0xbfa21961	-1.2663995
22	0xbfa4b3f7	-1.2867421
23	0x3e37c08b	0.17944543
24	0x3f0cdc12	0.550233
25	0x3fd3749f	1.6519965
26	0x3e74660e	0.23867056
27	0xbf780c44	-0.96893716
28	0xbf551c28	-0.8324609
29	0x3f705cf3	0.9389183
30	0xbe066ccd	-0.13127442
31	0x3f8a47d8	1.0803175
32	0x3f129022	0.5725118
33	0x3cec582e	0.028850641
34	0x3f20b94e	0.6278275
35	0x3ee976d6	0.45598477
36	0x3e6ddeb0	0.2322948
37	0x3dfd01ca	0.12353857
38	0x3f4e177f	0.805046
39	0xbf024d40	-0.50899124
40	0xbff0ade6	-1.880307
41	0x3f8a5e4a	1.0810025
42	0xbf0c99d8	-0.54922247
43	0xbf65b62d	-0.89731103
44	0x3fa93d3d	1.3221813
45	0x3efeb029	0.49743775
46	0x3ed97845	0.4247457
47	0x3d1578ee	0.03649228
48	0xbfbe5d16	-1.4872158
49	0xbfafcf6f	-1.3735179
50	0x3f34a96e	0.7057103
51	0xbfde52ad	-1.7368981
52	0xbeb386f9	-0.35063913
53	0x3f12fcc6	0.5741695
54	0x3d89a588	0.06721026
55	0x3f1e39b4	0.618068
56	0xbe96550d	-0.29361764
57	0xbf4eff9a	-0.8085877
58	0x3e97383e	0.29535097
59	0xbfc152bb	-1.5103372
60	0xbfbb302f	-1.462408
61	0x3eb02675	0.3440434
62	0x3f603907	0.87587017
63	0x3f39f2e9	0.72636276
64	0xbfdca32f	-1.72373
65	0xbd5ecf54	-0.054396942
66	0x3f6b418e	0.91896904
67	0x3ed994c9	0.42496327
68	0x3f63b5de	0.8894938
69	0x3f006b74	0.5016396
70	0x3fcdeb89	1.6087505
71	0xbf919828	-1.1374559
72	0x3f5c500f	0.8605966
73	0x4012f87f	2.296417
74	0xbf08ff5d	-0.53514653
75	0x3f351e29	0.70749146
76	0x3fd2ae6c	1.6459479
77	0x3f642244	0.89114785
78	0x3eabc94e	0.3355202
79	0x3f3a2e30	0.72726727
80	0xbeee9372	-0.46596867
81	0xbecb3c12	-0.39694268
82	0xbfa2e926	-1.2727401
83	0xbed56059	-0.4167507
84	0xbf22ef83	-0.63646716
85	0xbf33fbe2	-0.7030622
86	0x3ece3b30	0.4027953
87	0xbfc8380a	-1.5642102
88	0xbf93638c	-1.1514754
89	0xbf334865	-0.7003234
90	0xbed86d44	-0.42270863
91	0xbe9ae813	-0.30255184
92	0x3f19825e	0.5996455
93	0xbfc90078	-1.5703268
94	0x3d63053c	0.055424914
95	0x3f36463c	0.7120092
96	0x3f2ad406	0.6672977
97	0x3ebd119b	0.36927494
98	0xbe88bc91	-0.26706365
99	0x3f8891dc	1.0669513
100	0xbf7139db	-0.94228905
101	0xbf88e3e5	-1.0694548
102	0x3fbba930	1.4661007
103	0x3fb51653	1.4147438
104	0x3f561733	0.8362915
105	0xc00afb20	-2.1715775
106	0x3f61c6ac	0.88193774
107	0x3fd9e6d1	1.7023565
108	0x3fb356f6	1.4010913
109	0x3f635e36	0.8881563
110	0xbf00b1bf	-0.5027122
111	0x3fa38573	1.27751
112	0x3f80300d	1.0014664
113	0xbfc6dac7	-1.5535516
114	0xbf2b1770	-0.6683264
115	0xbeac9cc1	-0.33713344
116	0x3ef04f95	0.46935716
117	0xbe62379e	-0.22091529
118	0xbeef86ef	-0.46782634
119	0xbd7136dc	-0.05889021
120	0x3e9b09f7	0.3028104
121	0x3e50c0c4	0.20386034
122	0x3f4d7316	0.8025373
123	0xbf67e2ce	-0.9058045
124	0xbecdaa20	-0.40168858
125	0x3fb325fd	1.3995968
126	0x3fc5ab05	1.5442816
127	0x3f874855	1.0568949
128	0xbf89304a	-1.0717862
129	0x3e94dcf6	0.2907483
130	0x3c5050b4	0.012714554
131	0x3fb172d1	1.3863164
132	0x3f6ec037	0.93262047
133	0xbf97fa7b	-1.1873316
134	0x3e69b6da	0.22823659
135	0xbf2f0f6d	-0.6838291
136	0x3ee8b7ef	0.4545283
137	0x3dfbb8d9	0.12291116
138	0x3fd10841	1.6330644
139	0xbfc686fe	-1.5509946
140	0xbfa46135	-1.2842165
141	0x3f32631a	0.69682467
142	0xbe3c2bb4	-0.18376046
143	0x3f2eb287	0.6824116
144	0x3f18f3d1	0.59747034
145	0xbe98823c	-0.2978686
146	0x3f74977d	0.9554365
147	0x3d53853d	0.051640738
148	0x3f196e6c	0.59934115
149	0x3f992a80	1.1966095
150	0x3f9c1f5a	1.2197068
151	0xbf920318	-1.1407194
152	0xbdad4ff6	-0.08462517
153	0x3f21e635	0.63241893
154	0xbfbf5743	-1.4948505
155	0xbf2c2b26	-0.6725334
156	0xc01097e4	-2.2592707
157	0x3f4c9903	0.7992098
158	0xbf1eba18	-0.62002707
159	0x3fe40a59	1.7815658
160	0x3fdac909	1.7092601
161	0x3faae75e	1.3351858
162	0x3fc97577	1.5738972
163	0xbed937ae	-0.42425293
164	0xbf85e4d3	-1.0460457
165	0xbfb697d5	-1.4265085
166	0xbe41f2db	-0.18940298
167	0xbf3027f2	-0.6881095
168	0x3f48f3f8	0.78497267
169	0x3f5b6fc2	0.85717404
170	0xbe8e1d66	-0.27756804
171	0x3ee8deb9	0.45482424
172	0xbf51249d	-0.8169649
173	0xbf00bc08	-0.5028691
174	0x3e5c7df7	0.21532427
175	0x3e983ae4	0.2973243
176	0xbfa75f6d	-1.3075997
177	0x3f59294e	0.8482865
178	0xbe4276e2	-0.18990663
179	0xbf006317	-0.501512
180	0x3f2fe4e5	0.6870864
181	0x3f8d5601	1.1041871
182	0x3e85e0d1	0.26148084
183	0x3e6f9c20	0.233994
184	0x3fc22668	1.5167971
185	0x3fa32557	1.274577
186	0x3f9e495e	1.236614
187	0x3f8c5c87	1.0965737
188	0x3f651c85	0.8949664
189	0x3f258d6a	0.64668906
190	0x3ea645d3	0.32475147
191	0x3ea2c174	0.31788218
192	0x3e455d16	0.1927379
193	0x3f1a7e67	0.60349125
194	0xbfb444a7	-1.4083451
195	0x3e91e6da	0.28496438
196	0x3dd5e9a5	0.10444955
197	0x3ebbc83b	0.366762
198	0xbf7c5910	-0.985734
199	0x3e601cc0	0.21885967
200	0xbf05d9c2	-0.522854
201	0x3d49055d	0.04907738
202	0x3ff6d827	1.9284714
203	0xbfa589a7	-1.2932633
204	0x3f333cf0	0.7001486
205	0x3f9a631e	1.2061498
206	0xbfa2a4e7	-1.2706574
207	0x3ea73353	0.32656345
208	0xbf0125d2	-0.50448334
209	0x3eaa21ac	0.33228815
210	0x3fbb5b3f	1.4637221
211	0x3e3a1da7	0.18175374
212	0x3ed2185a	0.41034204
213	0x3d8d3284	0.06894401
214	0xbf298a9a	-0.66227114
215	0x3fbb1675	1.4616228
216	0xc0071f4a	-2.1112847
217	0x3fb1cd63	1.3890804
218	0xbf03eae5	-0.51530296
219	0xbf754296	-0.9580473
220	0x3f52cff4	0.8234856
221	0x3facff0b	1.3515333
222	0x3f3f413d	0.7470892
223	0xbfb4bfff	-1.4121093
224	0x3fefe6ca	1.8742306
225	0x3f26f2af	0.65214056
226	0xbf7fbff1	-0.99902254
227	0x3f223447	0.6336102
228	0x3d46d4e8	0.048542887
229	0x3d27a358	0.04092726
230	0xbf4f7a1b	-0.81045693
231	0xbe450ecf	-0.1924393
232	0x3faa1445	1.3287436
233	0x3f42c8b5	0.76087505
234	0x3f31022d	0.69143945
235	0x3f810646	1.008004
236	0xbeb440bf	-0.35205647
237	0x3e885998	0.26630855
238	0x3fc82490	1.5636158
239	0x3f1e3c7c	0.6181104
240	0xbecc2559	-0.39872244
241	0xbfaa06ba	-1.3283303
242	0x3d2cbe89	0.042173896
243	0x3f36dce4	0.714308
244	0x3fa64470	1.2989635
245	0x39dbcdb3	0.00041924193
246	0x3fa8f541	1.3199846
247	0xbeaf4aaf	-0.34236667
248	0xbf227867	-0.6346497
249	0x3ec9fc7b	0.3945044
250	0x3f86a4b1	1.051901
251	0x3eacb6d3	0.33733234
252	0x3f479343	0.7795908
253	0xc016f91c	-2.3589544
254	0x3f74d36e	0.95635116
255	0xbfad31fa	-1.3530877

n1.running_var f4 [256]
0	0x4109d5d8	8.614708
1	0x405f535e	3.4894633
2	0x4067e114	3.6231127
3	0x3f238532	0.63875115
4	0x407103c8	3.7658558
5	0x408ba514	4.363901
6	0x40003c5d	2.0036843
7	0x3ff779ba	1.9334023
8	0x3fd03d99	1.6268798
9	0x3ffea0df	1.9892844
10	0x41167141	9.40265
11	0x4015a972	2.3384671
12	0x3fbf1228	1.4927416
13	0x3f206a31	0.62662035
14	0x40b36d05	5.607058
15	0x404d570f	3.2084386
16	0x3f897b6e	1.0740793
17	0x406ed098	3.7314816
18	0x40ddbaef	6.929069
19	0x40311b62	2.7672963
20	0x3f2c3534	0.6726868
21	0x4049ee8d	3.155185
22	0x3fd4a40d	1.6612564
23	0x3fc355e7	1.526059
24	0x401b274a	2.424273
25	0x40a8f831	5.280297
26	0x3f7d0ada	0.98844683
27	0x41469ec5	12.413762
28	0x40575bc9	3.3649771
29	0x405bc5c8	3.4339466
30	0x401ae469	2.420191
31	0x400853a4	2.130105
32	0x3fb622ea	1.4229405
33	0x405b91dd	3.4307778
34	0x4003e7b1	2.0610163
35	0x40a1737d	5.0453477
36	0x40c4e6be	6.153167
37	0x3f8e0a60	1.1096916
38	0x3fe77b44	1.8084493
39	0x3f9feb77	1.2493733
40	0x3fb66989	1.4250957
41	0x3fd2f9a1	1.6482431
42	0x3fd9b791	1.7009145
43	0x3fd0be8b	1.6308149
44	0x3f858158	1.0430098
45	0x4035adf3	2.838742
46	0x3fbe5b6b	1.4871649
47	0x4069a87c	3.6509085
48	0x3fb5718f	1.417528
49	0x3fb0b597	1.3805417
50	0x4005fbaa	2.0934854
51	0x3ffe1b39	1.9852058
52	0x40245163	2.5674675
53	0x3ea34d98	0.31895137
54	0x3fd4b398	1.6617308
55	0x3fd7fc0d	1.6873795
56	0x40666232	3.5997434
57	0x3ee256a7	0.44206735
58	0x3fba2628	1.4542894
59	0x40d2dbf8	6.5893517
60	0x3fbcf4ea	1.4762242
61	0x4004c7ce	2.074695
62	0x407388ac	3.8052168
63	0x3f851df7	1.039977
64	0x3f7a0d43	0.97676486
65	0x403988c4	2.8989725
66	0x3f8920e7	1.0713166
67	0x402a1210	2.6573524
68	0x3f804308	1.0020456
69	0x3fefa025	1.8720747
70	0x3f77bd37	0.96773094
71	0x4016a25f	2.3536603
72	0x40843b8a	4.132268
73	0x400cb602	2.1986089
74	0x40f3377c	7.600523
75	0x3f020ee5	0.5080398
76	0x4049bab9	3.1520216
77	0x3f929032	1.1450255
78	0x3f3bd99b	0.73378915
79	0x404b8a9d	3.1803353
80	0x3f80a1b9	1.0049354
81	0x40381536	2.8762946
82	0x4098d053	4.77543
83	0x40134e99	2.3016722
84	0x3fb5aa68	1.4192629
85	0x40a912dc	5.283552
86	0x4049ace5	3.1511776
87	0x3fe95105	1.822785
88	0x40148d3b	2.32112
89	0x3f6235c1	0.8836327
90	0x3fe3ed0d	1.7806717
91	0x40fd1788	7.9091225
92	0x40151c9a	2.3298707
93	0x403c43af	2.941631
94	0x4099e43e	4.8091116
95	0x3f7b07cf	0.9805879
96	0x40cf61aa	6.480672
97	0x3f2ea06b	0.6821353
98	0x3f0395a4	0.5140021
99	0x3fc936dc	1.5719867
100	0x401e3a76	2.4723182
101	0x3fcd70ba	1.6050026
102	0x3f76a206	0.9634098
103	0x3fc90a6b	1.5706304
104	0x40187db8	2.3826733
105	0x4084d86d	4.151419
106	0x408bd9fa	4.3703585
107	0x3f5e67f7	0.8687739
108	0x40855275	4.1663156
109	0x3fc00954	1.5002847
110	0x4029355c	2.6438818
111	0x3fe5e30b	1.7959913
112	0x40e9780c	7.295904
113	0x3f4f651c	0.81013656
114	0x402847c7	2.629381
115	0x405ed305	3.4816296
116	0x401653ca	2.348864
117	0x4068e49f	3.638954
118	0x405e06d6	3.4691672
119	0x4111865a	9.095301
120	0x40a9be66	5.304492
121	0x3f2cfb75	0.6757119
122	0x3fa1928c	1.2622848
123	0x3fbbea65	1.4680907
124	0x3fbfa7e7	1.4973115
125	0x40196772	2.3969388
126	0x3fc9b8dc	1.575954
127	0x3f2ddb04	0.67912316
128	0x3f2b0e20	0.6681843
129	0x3f2a9889	0.66639
130	0x40971e7f	4.7224727
131	0x4036a3e5	2.8537533
132	0x3fd0aff9	1.6303703
133	0x3ff83d1f	1.9393653
134	0x3fc714c4	1.5553212
135	0x4033f1a8	2.8116245
136	0x4025159f	2.5794446
137	0x4018847e	2.3830867
138	0x3fdee52b	1.7413687
139	0x4114d595	9.302144
140	0x3e7fcf3d	0.24981399
141	0x40cd7a95	6.4212136
142	0x3f9fd632	1.2487242
143	0x3f2439c9	0.64150673
144	0x3ff8d874	1.9441056
145	0x405c45cb	3.4417598
146	0x3ff26b46	1.8938987
147	0x40102ce2	2.2527394
148	0x412a3d9b	10.64004
149	0x412c922e	10.785688
150	0x4082297c	4.067564
151	0x409cf76b	4.9052024
152	0x41222309	10.1335535
153	0x40ae7ac7	5.4524875
154	0x3f57e902	0.84339917
155	0x3fe52a7e	1.7903593
156	0x40029590	2.0403786
157	0x400cd222	2.2003255
158	0x3f98fa33	1.1951355
159	0x3f82a7de	1.0207479
160	0x403481bf	2.820419
161	0x4019260f	2.392948
162	0x3f1b3d20	0.60640144
163	0x3f4c0045	0.7968791
164	0x40874409	4.227055
165	0x3ff4bc2a	1.9119923
166	0x414c5b1f	12.772246
167	0x409e803b	4.953153
168	0x3f952dc6	1.1654594
169	0x406eb346	3.729692
170	0x4004e482	2.076447
171	0x411aab54	9.666828
172	0x4124c0f0	10.297104
173	0x3fe76fa0	1.808094
174	0x40c6e705	6.2157006
175	0x3f5449c4	0.8292506
176	0x3f257e43	0.64645785
177	0x3ff196ea	1.887418
178	0x3f6cb04d	0.92456514
179	0x3fbf7575	1.495772
180	0x40634c60	3.5515366
181	0x3f206b35	0.62663585
182	0x3f5dc12d	0.8662289
183	0x3ffa8cfb	1.9574274
184	0x4030f604	2.7650156
185	0x3f06e65c	0.5269525
186	0x400afee8	2.1718082
187	0x40132dfa	2.2996812
188	0x3faf8427	1.3712205
189	0x4049ebc4	3.155015
190	0x403019c9	2.7515738
191	0x40513517	3.2688653
192	0x40a7ce27	5.243915
193	0x4033e9b3	2.8111389
194	0x4184a495	16.580362
195	0x3fc4d7c4	1.5378346
196	0x3f99f2a3	1.2027172
197	0x40108db4	2.2586489
198	0x3f234f65	0.6379302
199	0x3fbbf31c	1.4683566
200	0x400ce578	2.2015057
201	0x406d0443	3.703385
202	0x4037b136	2.870191
203	0x407c7229	3.9444678
204	0x3f7d2a29	0.98892456
205	0x40031656	2.0482383
206	0x403070b0	2.756878
207	0x4038eb58	2.8893642
208	0x40179ab1	2.3688166
209	0x403057f6	2.7553687
210	0x3f7d72dc	0.99003386
211	0x3fe4a87e	1.786392
212	0x4033093b	2.7974384
213	0x40e2be83	7.085756
214	0x408bc228	4.3674507
215	0x4006ad80	2.1043396
216	0x403e2632	2.9710813
217	0x3f8f76c0	1.1208115
218	0x40331d90	2.7986794
219	0x3ef4e735	0.47832647
220	0x3fa5547b	1.2916406
221	0x402f4b2b	2.738963
222	0x3fcb6896	1.5891292
223	0x408375c8	4.1081276
224	0x402471eb	2.569453
225	0x3f8ffe0b	1.1249403
226	0x3fa1cbf7	1.264037
227	0x3f6464d8	0.89216375
228	0x404a36ce	3.159595
229	0x3f8215a7	1.0162858
230	0x3f377604	0.7166445
231	0x4114f467	9.309669
232	0x406e9338	3.7277355
233	0x40449442	3.071549
234	0x3fb0dcc3	1.3817371
235	0x401fe69d	2.4984505
236	0x40867fef	4.203117
237	0x3f02b2fd	0.51054364
238	0x3fdd7422	1.7301066
239	0x3ffd8781	1.9806978
240	0x40dbb256	6.8655195
241	0x4009a9d1	2.1509898
242	0x40a4e2da	5.152692
243	0x3f3cef61	0.73802763
244	0x40a23050	5.0683975
245	0x4030e760	2.764122
246	0x404581d1	3.0860484
247	0x4008f090	2.1396828
248	0x3fea5810	1.8308125
249	0x3fcaa667	1.5832032
250	0x3fb60e02	1.4223025
251	0x4079f50b	3.9055812
252	0x40addf07	5.433475
253	0x40258de3	2.586785
254	0x403b8fce	2.9306521
255	0x3faa7872	1.3318007

fc2.weight f4 [128, 256]
0	0x3da6a142	0.08136226
1	0x3befdebb	0.0073202527
2	0x3db6d656	0.089276
3	0x3d4876b6	0.048941337
4	0xbde51e26	-0.11187391
5	0x3d10ab6f	0.03531974
6	0x3df59f0e	0.11993228
7	0xbc39deb0	-0.011344597
8	0x3af09a97	0.0018356618
9	0x3e29d6d0	0.1658585
10	0x3dc5f8a5	0.09666566
11	0xbdc9a73c	-0.098463506
12	0xbd97da19	-0.07414646
13	0x3e027861	0.12741233
14	0x3e08a9b7	0.13345991
15	0x3de7c07a	0.11316009
16	0x3ca7d0eb	0.020485362
17	0xbce287f3	-0.027652716
18	0x3bf712a1	0.0075400625
19	0x3db29691	0.087201245
20	0x3e812d43	0.25229844
21	0x3ccd4b2e	0.025060263
22	0x3e17b3a2	0.14814618
23	0x3d85b731	0.065290816
24	0x3e024af5	0.12723906
25	0xbcf7671a	-0.03020053
26	0xbe005853	-0.12533693
27	0x3ab68b81	0.0013927073
28	0x3dfb8aaa	0.122823074
29	0x3e29d37c	0.16584581
30	0x3e5a8872	0.21341112
31	0x3dc88d1d	0.0979254
32	0xbcf862a9	-0.030320482
33	0x3d9ee10c	0.07757768
34	0x3c0adc5d	0.00847539
35	0x3e1ae0ff	0.15124892
36	0xbd079d15	-0.03310879
37	0xbca4c459	-0.020113157
38	0x3dfbf6d1	0.12302936
39	0xbd57734f	-0.0526002
40	0xbdf225f2	-0.11823644
41	0xbc5582d8	-0.013031684
42	0xbdc39e2b	-0.095516525
43	0xbd444813	-0.047920298
44	0xbdfeebca	-0.12447317
45	0x3d40201e	0.04690563
46	0x3e0b4418	0.13600194
47	0xbd44fcb6	-0.048092566
48	0xbdd2c297	-0.10291021
49	0x3dd61422	0.10453059
50	0xbddcd45e	-0.10782693
51	0xbdcbce60	-0.09951472
52	0xbcf87ed9	-0.030333923
53	0x3e4c0bc7	0.19926368
54	0xbd5b52e8	-0.053545862
55	0x3ded0fa1	0.115752466
56	0xbda4906d	-0.080353595
57	0x3ea1d39c	0.31606758
58	0x3e350e0b	0.17681138
59	0xbbca59ca	-0.0061752545
60	0xbd99e4ea	-0.07514365
61	0x3def51ba	0.1168551
62	0x3d34a9cf	0.044107255
63	0x3dd7982d	0.10527072
64	0xbe138973	-0.14407901
65	0x3bad1f1e	0.0052832505
66	0x3e225286	0.15851793
67	0xba61a74d	-0.00086079986
68	0x3da02044	0.07818654
69	0xbe45e4fe	-0.19325635
70	0xbceca49f	-0.028887091
71	0x3e0329cd	0.12808914
72	0xbd46b207	-0.048509624
73	0x3d91ead8	0.07124871
74	0x3dc6ce86	0.0970736
75	0xbc9ce669	-0.019152837
76	0x3d81da7e	0.06340502
77	0xbd84c1f0	-0.06482303
78	0x3cfcdc80	0.030866861
79	0x3ddfabc9	0.10921437
80	0xbdd2662a	-0.102733925
81	0xbdf25fb8	-0.11834663
82	0x3d51dc50	0.051235497
83	0xbd255740	-0.04036641
84	0x3e305504	0.17219931
85	0x3cbeabdc	0.023275308
86	0x3d95e05d	0.073181845
87	0xbdf3864a	-0.11890848
88	0x3cda31ed	0.026635135
89	0x3e413713	0.18868665
90	0x3dd08ced	0.101831295
91	0x3e56828c	0.20948237
92	0xbc0b2fae	-0.008495254
93	0x3cad873e	0.021182653
94	0x3c841040	0.01612103
95	0xbda0c94d	-0.07850895
96	0x3d36d64e	0.04463797
97	0x3e2d3f64	0.16918713
98	0x3d28de72	0.041227765
99	0xbd75f581	-0.060048584
100	0x3db14710	0.08656132
101	0xbd40dae6	-0.047083758
102	0xbd85bb86	-0.06529908
103	0xbd75198f	-0.059838828
104	0xbd0569be	-0.032571547
105	0xbcc5c08b	-0.024139663
106	0xbdfb6259	-0.12274618
107	0x3deb8e02	0.11501695
108	0x3dd7bfab	0.10534605
109	0x3dab9c5e	0.08379434
110	0xbcbf4c41	-0.02335179
111	0xbdfb0fdb	-0.122588836
112	0xbc3abd0b	-0.01139761
113	0x3e620055	0.22070439
114	0x3d8a222e	0.067448005
115	0x3d9eecb9	0.07759995
116	0xbe0f6b19	-0.14005698
117	0x3e568adf	0.20951413
118	0xbd20fd5e	-0.03930413
119	0xbd002d11	-0.03129298
120	0x3d0c039c	0.03418313
121	0x3aee273f	0.0018169655
122	0x3e17371c	0.14767116
123	0xbc4b8816	-0.012422582
124	0x3e2ded07	0.1698495
125	0x3c942784	0.018085249
126	0xbda90754	-0.08253351
127	0xbe51ab82	-0.20475581
128	0x3e6779db	0.22605078
129	0x3e14fe0f	0.1455004
130	0x3dd66a75	0.10469524
131	0xbded07c6	-0.11573748
132	0x3d50791b	0.050896745
133	0x3e248c3c	0.1606912
134	0xbe1ceffb	-0.1532592
135	0x3db0eca2	0.08638884
136	0xbca9cfb0	-0.020728916
137	0x3da0fcd5	0.07860724
138	0x3dcb4990	0.0992614
139	0x3c97f39a	0.018548775
140	0x3d227ca3	0.039669644
141	0xbe0184f5	-0.12648375
142	0xbcb6768f	-0.02227333
143	0x3c0baad6	0.008524617
144	0xbe3c3247	-0.18378554
145	0x3d4106c8	0.047125608
146	0xbd115928	-0.035485417
147	0xbcaa012a	-0.020752508
148	0x3d63f85d	0.05565678
149	0x3d24b884	0.04021503
150	0x3e158dea	0.14604917
151	0x3d0f9aee	0.03505986
152	0xbdb68ee0	-0.0891397
153	0x3e36725d	0.17817064
154	0x3d3c996f	0.046044763
155	0x3ca013b4	0.019540645
156	0xbcd40694	-0.025882043
157	0x3dd10f72	0.10208024
158	0x3c567a53	0.013090688
159	0xbb3e9657	-0.0029081309
160	0xbe422cb5	-0.18962367
161	0x3d0bcf1c	0.03413306
162	0x3e26bc9f	0.1628289
163	0xbd00b90a	-0.031426467
164	0xbcea3475	-0.028589467
165	0x3e3bc84c	0.18338126
166	0x3da5a8df	0.0808885
167	0xbc6f0445	-0.01458842
168	0xbe242052	-0.16027954
169	0x3dd6ef83	0.10494902
170	0x3dc5057c	0.09620187
171	0xbd95c793	-0.073134564
172	0xbb735cf4	-0.0037134262
173	0xbe0d0fc5	-0.13775547
174	0xbd84a6be	-0.06477116
175	0xbb2246f0	-0.002476152
176	0xbdf8b6ad	-0.12144218
177	0x3d14b08e	0.03630119
178	0x3e81682e	0.25274795
179	0xbd614c69	-0.05500451
180	0x3e00c93d	0.12576766
181	0xbdc4f63a	-0.096172765
182	0x3dc41068	0.09573442
183	0x3da5dbf7	0.080985956
184	0xbdb942e7	-0.09045964
185	0x3eb545e1	0.35404876
186	0x3d0d377b	0.03447674
187	0x3d86a1c5	0.06573824
188	0x3d355f42	0.044280298
189	0x3d507abc	0.0508983
190	0x3c8ba3ac	0.017045818
191	0xbda5e3a7	-0.08100062
192	0x3df571f9	0.11984629
193	0x3cfcf7fe	0.03087997
194	0x3d7d5275	0.061846215
195	0x3d512523	0.051060807
196	0xbb8bd572	-0.004267388
197	0x3da1009c	0.07861444
198	0xbde45e99	-0.111508556
199	0x3e5334a0	0.20625544
200	0x3d96b1df	0.07358145
201	0x3e2c4644	0.16823679
202	0x3db195ea	0.08671172
203	0xbd848aac	-0.06471762
204	0xbd8c2054	-0.068421036
205	0xbd3aefc7	-0.045638826
206	0xbcab1e47	-0.02088846
207	0x3df90e15	0.12160889
208	0xbc17b687	-0.0092598265
209	0x3d426192	0.04745633
210	0x3e1e13fd	0.15437312
211	0xbc12b028	-0.008953132
212	0x3dd042d2	0.10168995
213	0xbd3e3d1b	-0.046444993
214	0x3dd39793	0.10331645
215	0x3d1153b6	0.035480224
216	0x3c8153ec	0.015787087
217	0x3e220e27	0.15825711
218	0x3e0293a4	0.12751633
219	0x3e1e6cd0	0.15471196
220	0xbda8f969	-0.08250696
221	0x3d3f2ce1	0.04667366
222	0x3c01e35e	0.007927744
223	0x3c76f210	0.015072361
224	0xbc20cf72	-0.009815084
225	0xbdf84f01	-0.12124444
226	0xbd90e68b	-0.070752226
227	0x3d46b1db	0.04850946
228	0x3cfcd4b9	0.030863153
229	0x3e58f598	0.21187437
230	0x3e2ae523	0.16688971
231	0xbd3ae3ff	-0.04562759
232	0x3d85e257	0.065373115
233	0x3ddce034	0.10784951
234	0xbdbe55ae	-0.09293686
235	0xbdffea1a	-0.12495823
236	0x3d1d1122	0.038346417
237	0x3de8939b	0.113562785
238	0x3e3249f0	0.17411017
239	0x3e00cf29	0.12579025
240	0xbc3c42eb	-0.011490564
241	0x3c31ee17	0.010859988
242	0xbccbc92f	-0.024876205
243	0x3e1641d9	0.14673556
244	0x3b68461a	0.0035442174
245	0x3d48b178	0.048997372
246	0xbd1df1d8	-0.03856072
247	0x3dacbef3	0.08434858
248	0x3dc28aed	0.09499154
249	0xbdc6b0ef	-0.09701716
250	0xbd206f95	-0.039168913
251	0xbd165d1f	-0.0367099
252	0x3d8e57f6	0.06950371
253	0x3d946ddc	0.072475165
254	0x3da9bd11	0.08288015
255	0xbbf6441c	-0.0075154435

fc2.bias f4 [128]
0	0x3c4e7a78	0.012602441
1	0xbdb64247	-0.0889936
2	0x3cd93486	0.026514303
3	0xbd71ef49	-0.05906609
4	0x3c39bf2d	0.011337084
5	0xbc72a726	-0.014810359
6	0xbd84fc08	-0.06493384
7	0xbb965f55	-0.004589001
8	0xbd8c4a09	-0.068500586
9	0xbd57141f	-0.052509423
10	0xbd8af97b	-0.06785866
11	0x3de085e5	0.10963038
12	0x3cb721c8	0.022354975
13	0x3d16541d	0.03670131
14	0xbd446a54	-0.047952965
15	0xbd2c794c	-0.042107865
16	0xbd378aad	-0.044809986
17	0x3c13927c	0.009007093
18	0xbca028a1	-0.019550623
19	0xbccc7521	-0.024958195
20	0xbc6000eb	-0.013672094
21	0xbd08abe8	-0.033367068
22	0xbc5ff899	-0.01367011
23	0xbd1f4e8b	-0.038893264
24	0x3aa72d60	0.0012754612
25	0x3cca637a	0.024705637
26	0xbcc3e1b8	-0.023911342
27	0x3d39a411	0.04532248
28	0xbd94d12c	-0.07266459
29	0xbd9cb3d6	-0.076514885
30	0x3b9a01d4	0.004699925
31	0x3c5bf492	0.013425009
32	0xbd132246	-0.035921358
33	0xbd2a3d4d	-0.041562367
34	0xbcee615a	-0.029099155
35	0xbd047a59	-0.032343242
36	0xba6b0647	-0.0008965474
37	0xbd8c10ec	-0.06839165
38	0xbcc273c4	-0.023736842
39	0xbcc0503f	-0.023475764
40	0xbdc289b4	-0.09498921
41	0xbd06bd1d	-0.032895196
42	0xbd5eb149	-0.05436829
43	0xbd207d79	-0.03918216
44	0xbd0b02dc	-0.033938274
45	0x3b821439	0.003969696
46	0x3d3dc3bd	0.04632925
47	0xbd0851c0	-0.033281088
48	0xbc270285	-0.010193472
49	0xbce7752e	-0.028254118
50	0x3d74526b	0.059648912
51	0xbd8e16cc	-0.06937942
52	0xbde58bf2	-0.11208333
53	0x3d90f075	0.070771135
54	0xbd3bcfe8	-0.04585257
55	0x3e03869c	0.12844318
56	0xbb755e94	-0.0037440406
57	0xbd80d6df	-0.062909834
58	0x3ce51b2f	0.027967064
59	0x3d58f4e0	0.052967906
60	0xbd4a156d	-0.04933684
61	0x3c2fe5d6	0.0107359495
62	0xbd86eb6c	-0.06587872
63	0xbaba2e15	-0.0014204407
64	0xbc764d66	-0.015033102
65	0xbbfd11d5	-0.007723073
66	0xbba96813	-0.0051698773
67	0x3b7c6f1e	0.003851838
68	0xbd2deb58	-0.04246077
69	0x3b38796c	0.0028148545
70	0xbc91c19a	-0.017792512
71	0xbd78c548	-0.060735017
72	0xbd2c3c12	-0.042049475
73	0xbcae0799	-0.021243857
74	0x3cd20f1a	0.025641967
75	0x3bc4b914	0.0060035083
76	0x3cb6b4c3	0.02230299
77	0x3dc292aa	0.0950063
78	0x3bb60085	0.005554261
79	0xbd70ff29	-0.05883709
80	0xbd3daa16	-0.046304785
81	0xbd60c6b5	-0.054877
82	0xbd2c5e0c	-0.042081878
83	0x3bc05b0c	0.0058702286
84	0x3d241e96	0.04006823
85	0x3ced97b0	0.029002994
86	0x3e1953f8	0.14973438
87	0xbc7d22bc	-0.015450176
88	0xbc976ec5	-0.018485436
89	0xbb0d4da8	-0.002156118
90	0x3dab2aaf	0.083577506
91	0xbd691ad0	-0.056910336
92	0xbd416a1c	-0.047220334
93	0xbd615a06	-0.055017494
94	0x3d3ed43a	0.046589114
95	0xbd8b5e01	-0.06805039
96	0x3bf6545d	0.007517381
97	0xbb9b991e	-0.0047484776
98	0xbd1422ca	-0.03616599
99	0x3dc89f76	0.0979604
100	0xbac90518	-0.0015336601
101	0xbc906abd	-0.017629022
102	0xbc69f7cc	-0.014280271
103	0x3b5d4e3c	0.0033768555
104	0x3dcaa6c8	0.09895092
105	0xbd35518a	-0.044267215
106	0xbd54c2f3	-0.05194373
107	0xbd8597be	-0.06523083
108	0xbda0a90a	-0.07844742
109	0x3c8b3713	0.016994035
110	0xbc567a89	-0.013090738
111	0xbc5cd3e4	-0.013478253
112	0xbd7fac29	-0.062420044
113	0x3aae57a9	0.0013301271
114	0xbced34de	-0.028955873
115	0xbd11c79e	-0.03559076
116	0xbca0f2a3	-0.019646948
117	0xbc8a18bb	-0.016857496
118	0xbc2cc5d0	-0.010545209
119	0xbd598dd2	-0.053113766
120	0xbdaa9584	-0.08329299
121	0xbc2db976	-0.010603299
122	0xbd835678	-0.06412977
123	0xbc8f7b89	-0.01751496
124	0xbb98dfe6	-0.0046653626
125	0x3c7fa4c9	0.015603253
126	0xbc275fc5	-0.010215704
127	0xbbc74abd	-0.0060819075
